checkpoint_critic.pth (torch_old, 542737 bytes, 5 tensors)

first_layer.weight f4 [400, 33]
000000 83 0d 25 bd e7 75 97 3c 2d 37 93 3d 0b 99 87 3d
       -0.04029609 0.018488837 0.07188258 0.066209875
000010 06 54 72 bd 4f a9 f9 bd 1a ea e5 3d 00 1b b2 bb
       -0.059162162 -0.12190496 0.11226292 -0.0054353476
000020 c3 d4 15 be cc b1 b1 bd db 95 26 3d db 7e 11 3c
       -0.14631943 -0.0867649 0.040670257 0.008880342
000030 8f 7b 2c 3d 04 88 1d 3d 16 9e 54 3d 72 55 0e 3b
       0.042110022 0.038459793 0.051908575 0.002171841
000040 bd d7 10 3d c0 ad 6f bd 14 15 45 bd fa 59 46 3b
       0.035361994 -0.05851531 -0.048115805 0.0030266033
000050 5c 3f c7 3a 8b 06 3e 3c d3 83 c4 3c c8 2b 39 3c
       0.0015201378 0.01159824 0.02398864 0.011301942
000060 52 0b 1f 3c fa 6b c9 3b 85 be 95 3d a5 c8 75 bc
       0.009707289 0.006146905 0.07311729 -0.015001451
000070 83 73 ef 3b 76 7f 9a 3c 7a cc df 3b e4 87 79 3c
       0.0073074712 0.018859606 0.0068297954 0.015230153
000080 f1 5d 86 be d3 4e a9 ba 5b 88 6c 3d 75 83 d2 bd
       -0.26243547 -0.0012917168 0.057747226 -0.1027898
000090 5a 00 5c 3c ab e8 4f bc 6b 19 08 3c 4c 4f 50 3b
       0.013427818 -0.01268975 0.008306841 0.0031785546
0000a0 59 dd bf bb f3 be 8c bc 3d 21 91 bb 0c 28 61 3c
       -0.005855244 -0.017180895 -0.004429011 0.013742458
0000b0 b8 8e 17 3c 94 ef 43 bc 7f dc 03 bc 19 9a 4b bc
       0.009250335 -0.011958975 -0.008048176 -0.012426876
0000c0 1d 43 0b 3e a5 71 c7 3b fa 14 d1 3b 19 29 3b bd
       0.1359982 0.0060865455 0.0063806744 -0.04569349
0000d0 3b 76 fe 3b 2d 7c 8f bc 55 69 3c 3c 28 39 de 3b
       0.007765559 -0.017515266 0.0114997225 0.006781716
0000e0 df 0f e6 ba dd 0c 9d bb 19 65 35 3c b7 11 da 3c
       -0.0017552337 -0.004792793 0.011071467 0.026619775
0000f0 3e 02 88 3c 32 3e ce bd 50 bf b4 bc 2e 09 38 bd
       0.016602632 -0.100704566 -0.022063881 -0.04493063
000100 d5 e6 40 3d 0f 8d 0d 3e 20 90 84 bc 16 68 52 ba
       0.04709514 0.13823341 -0.016182005 -0.0008026374
000110 cd 7f 98 3d 92 31 20 3d 76 81 c6 bd 7e 93 30 bd
       0.07446251 0.039109774 -0.096926615 -0.04310941
000120 2a f8 7b bc ba 66 a0 bc 63 a9 67 3d 21 65 2e 3d
       -0.015378991 -0.019580234 0.056558024 0.042576913
000130 50 d0 c8 bc a9 95 18 bd 76 e1 e0 bb e4 16 ac 3c
       -0.024513394 -0.037252102 -0.0068628145 0.021007009
000140 f5 14 fa bc 24 79 af bc 8b 43 0f 3d 37 65 3b bd
       -0.030527571 -0.021420069 0.034976523 -0.045750823
000150 59 1b d3 bc b0 55 a1 bc 27 fe 77 3c 9d 49 5f bc
       -0.025769876 -0.01969418 0.015136278 -0.013628391
000160 26 b3 34 3c 2e 20 21 3d 31 d1 36 bd 23 9f a5 bc
       0.01102904 0.03933733 -0.044633094 -0.020217484
000170 b8 22 a1 bc d9 96 61 3d 54 05 9e bc e8 34 23 3c
       -0.019669876 0.0550755 -0.01928965 0.009961344
000180 55 e0 53 bc 30 62 14 bd 7d b2 7b bd 4c 07 45 bd
       -0.012931903 -0.03622645 -0.061449517 -0.048102662
000190 f2 59 a5 3d 04 ec 9a bd 18 ca 84 bd 76 e7 ae bd
       0.08073796 -0.07564548 -0.06483859 -0.085402414
0001a0 05 b9 04 bd 81 9b 0d 3e 75 52 9d 3d 7d ff e4 3c
       -0.03240301 0.13828851 0.07681743 0.027953858
0001b0 8c 7d 67 3b dc 24 91 ba 07 d1 7c bb 1a a3 c2 bb
       0.0035322635 -0.0011073607 -0.0038576738 -0.0059398534
0001c0 ea ee c8 ba 7c a3 e6 bc 5b b4 52 3c c6 3f 03 3d
       -0.0015329991 -0.028154127 0.012860383 0.03204324
0001d0 bc 79 23 bd 5e 1f 90 3d a7 45 52 bc 07 c4 4d ba
       -0.039911017 0.07037233 -0.012833989 -0.000784934
0001e0 64 13 dc 3a be 57 2a bb 31 eb 91 bb e0 69 0c bc
       0.0016790447 -0.002599224 -0.004453086 -0.008570164
0001f0 e5 d0 99 bc e3 69 e1 bc d7 33 81 3d 6a 79 36 bd
       -0.018776366 -0.027516311 0.06308716 -0.044549383
000200 34 02 8a bc e5 30 97 3b 98 6c 40 bc 91 6c 36 3e
       -0.016846754 0.004613983 -0.011744641 0.17814852
000210 92 c5 12 bd fc 77 b6 bb d5 e3 a3 3c f6 e8 d1 3b
       -0.03583295 -0.0055685025 0.0200061 0.006405945
000220 ad 40 99 bc 50 8a 5d 3d bc c9 06 3d c9 c5 87 3d
       -0.018707598 0.054086983 0.032907233 0.066295214
000230 90 58 a4 3d 47 22 6f 3d 03 00 9f 3c 04 c5 71 bc
       0.080247045 0.0583823 0.019409185 -0.014756445
000240 1f 6b 7d 3c 59 3d cf 3c bb e6 01 3d e5 ee 24 3d
       0.015467434 0.025297808 0.031714182 0.04026689
000250 88 cb e9 bc c7 2f 58 3d b7 fa 48 bd 91 c5 f7 bb
       -0.028539434 0.05277994 -0.049067225 -0.0075613935
000260 61 e6 ce bc 25 f2 3b bd a4 03 9e 3c 40 a8 da bc
       -0.025256338 -0.045885224 0.019288845 -0.026691556
000270 50 f1 98 3b 0e aa 50 3c cd 18 89 3b d2 dd 93 3c
       0.0046674386 0.012735857 0.0041838647 0.018050108
000280 15 48 29 bd ac ad 0f 3c 7b a8 69 bd 6c 52 8c bc
       -0.04132851 0.008769434 -0.05704544 -0.017129146
000290 2b 30 e8 3d 65 59 ea bb 9b d7 60 ba a1 9c 75 3d
       0.11337312 -0.00715177 -0.00085770496 0.059963826
0002a0 b5 08 cc 3b 20 a6 2d bd f4 c7 29 3c 95 1f 04 3c
       0.006226624 -0.042394757 0.010362614 0.00806417
0002b0 60 7a 08 bd 1e 5b a8 3d 18 61 95 bd 87 dd 23 3c
       -0.03331983 0.08220504 -0.0729391 0.010001547
0002c0 c3 54 bd bc 34 06 0e 3d 0a 24 df 3c d3 63 77 bd
       -0.023111707 0.034673885 0.027238864 -0.060397934
0002d0 96 9f b8 bc c7 fd dc 3d 04 a6 d5 3c 5e af 8b bb
       -0.022537034 0.10790592 0.026080139 -0.0042628488
0002e0 51 f6 b1 3c 34 2f a5 3c dc 9b 7c 3c 76 17 0c bc
       0.021723898 0.02016411 0.015418019 -0.008550515
0002f0 ad f2 06 3d 4a cc 62 bc a3 df 18 bd 1a 6f 2d bd
       0.032946277 -0.013842652 -0.03732265 -0.042342283
000300 f0 b9 11 3d 74 4d a6 3b fd 04 1d 3d 52 d2 8a ba
       0.035577714 0.005075151 0.038334835 -0.0010591245
000310 fd 75 0c 3d 75 4c 74 bd 2f 46 85 bc e0 c8 48 bd
       0.03429221 -0.059643228 -0.016268818 -0.049019694
000320 ed fe e7 3d e4 47 9a bc 6f 1e f1 3c f7 37 2c bd
       0.1132792 -0.018833108 0.029433457 -0.04204556
000330 cc 93 7e 3d 06 38 4f bc 03 0d 0a 3c 8b 7d db 3c
       0.06215267 -0.012647634 0.008425954 0.026793262
000340 99 d3 9e bb d9 d5 a3 3c 5a a1 c9 3b fe dc 05 3d
       -0.0048470018 0.019999431 0.006153268 0.032681458
000350 22 90 bb 3d 73 38 0e be b6 7d 81 bd e1 0c 3d 3c
       0.091583505 -0.13888721 -0.063228056 0.011538715
000360 c5 86 a7 3a af ab 5d bc f1 a1 f1 bb 26 50 d1 bb
       0.0012781253 -0.013529702 -0.0073740412 -0.0063877283
000370 16 af 5f bb 27 ac 11 3c ac 5a 25 3c f1 2a f3 bb
       -0.003413146 0.008891142 0.010092419 -0.0074208905
000380 a0 f5 9e bc 22 b6 88 3d 8f 51 ae 3d 64 d1 72 3c
       -0.019404233 0.06675364 0.0851165 0.01482043
000390 82 36 82 3b e7 cc df bc 65 9d 81 3d 60 18 18 bd
       0.003973783 -0.027319385 0.06328849 -0.03713262
0003a0 4b 0e d6 b5 35 fe 61 3d 44 3c 5e bd 85 eb 85 bd
       -1.5948402e-06 0.05517407 -0.054256693 -0.065390624
0003b0 44 dd 46 bc 5e bd e3 bc b1 ac ac 3c 24 26 42 3c
       -0.012137715 -0.027800258 0.02107844 0.011849914
0003c0 ba b8 eb bc bb 94 00 bb b6 91 06 3c b2 2a d9 3a
       -0.028774608 -0.00196199 0.008213451 0.001656851
0003d0 dc fc 2f 3d da 70 d5 3c 59 35 ee bc 12 47 d2 3d
       0.042965755 0.026054788 -0.029078173 0.10267462
0003e0 fc 1f c5 bc a5 30 53 3c 1d f7 36 3d db 85 a8 3c
       -0.024063103 0.012890016 0.04466926 0.02057164
0003f0 c1 4b 27 3d 7b 40 dd 3c 9f 4d fc bc 24 f3 1a 3a
       0.04084373 0.027008286 -0.030798731 0.00059108646

first_layer.bias f4 [400]
000000 5e da 10 3e 61 06 92 3d ca 4b 6f 3d 63 f8 6e 3d
       0.141458 0.07130123 0.058421887 0.05834235
000010 f0 73 5a 3d ea 4f d5 3d 3d d8 a6 3d e4 d4 81 3d
       0.053333223 0.10415633 0.08146713 0.06339434
000020 f4 50 41 3d c8 0c 26 3d 26 b4 59 3d 7f ca e7 3d
       0.047196344 0.040539533 0.05315032 0.1131792
000030 38 07 ae 3c c3 22 9b 3d 85 2e 36 3d a7 46 91 3d
       0.021243677 0.0757499 0.04447796 0.07093554
000040 30 60 aa 3d 37 5d 00 3e 05 dc c3 3d 7c 89 45 3d
       0.083191276 0.12535559 0.0956345 0.04822682
000050 9e d3 81 3d d7 9f cd 3d 7e e0 c2 3d 3c bc d1 3d
       0.06339191 0.10040253 0.09515475 0.10240981
000060 12 f0 bc 3d f9 8b 65 3d 02 b4 4f 3d bc 35 01 bc
       0.09225477 0.05604169 0.05070878 -0.007886346
000070 d9 1c 89 3d be ce 7f 3d 7b ce 94 3d 8f d8 ae 3d
       0.066949554 0.062453024 0.072659455 0.08537399
000080 7e ce 7a 3d 72 87 a6 3d 24 28 74 3d cf da bf 3d
       0.061232083 0.08131303 0.059608594 0.09367906
000090 12 85 8f 3d e7 81 d7 3d 18 70 5d 3d f6 f7 9a 3d
       0.07007803 0.10522824 0.05406198 0.07566826
0000a0 1d 96 f6 3d e9 e0 33 3d 32 5a cd 3d 70 15 c1 3d
       0.120403506 0.043915663 0.10026969 0.09427917
0000b0 da 27 74 3d 1f ee fe 3d ce 4e c7 3d d6 fd a6 3d
       0.059608318 0.12447762 0.09731828 0.08153884
0000c0 85 0a a7 3d 21 75 f8 3c 01 d6 41 3d 7e 2b ab 3d
       0.08156303 0.030329289 0.04732323 0.08357905
0000d0 8a ec 40 3d b7 0a 95 3d 3b 55 bd 3d f4 fd a8 3d
       0.04710058 0.07277434 0.09244772 0.08251563
0000e0 6d 60 bd 3d cc 63 86 3d a7 f5 a6 3d e6 f5 cd 3d
       0.092469074 0.065620035 0.08152323 0.10056667
0000f0 7c c4 64 3d b7 81 8b 3d 13 6d 80 3d d5 ed f1 3d
       0.055851445 0.068118505 0.06270804 0.11812941
000100 a6 27 ef 3c 96 c6 c1 3d 50 8d 55 3d 60 a5 dc 3d
       0.02919371 0.094617054 0.05213672 0.1077373
000110 0b 9c d1 3d 91 75 8f 3d db c4 57 3d a0 36 c1 3d
       0.10234841 0.07004846 0.05267797 0.09434247
000120 8b 45 d1 3d c6 56 b0 3c d1 df 2c 3d d9 42 84 3d
       0.102183424 0.021525752 0.042205635 0.06458063
000130 4c 77 3d 3d 13 c4 71 3d 53 53 8e 3c 1a 51 be 3d
       0.04625635 0.05902488 0.017373716 0.09292813
000140 3c 65 d2 3d 5e ac bd 3d 7b 79 97 3d 84 57 87 3c
       0.10273215 0.09261392 0.073962174 0.016521223
000150 eb a7 17 3d 64 6a 9d 3c e3 9a 5a 3d a8 11 89 3d
       0.037025373 0.01921577 0.053370368 0.06692821
000160 f5 ce cc 3d b1 db c8 3d 52 86 9a 3d 00 3f ee 3d
       0.100004114 0.09807528 0.07545151 0.1163311
000170 28 64 4c 3d b4 37 97 3d a9 8c a0 3d c8 87 4a 3d
       0.049900204 0.073836714 0.07839329 0.049445897
000180 3f 9c 8a 3d 4e 23 86 3d 61 23 b4 3d b5 1d a6 3d
       0.06768083 0.065497026 0.087958105 0.08111135
000190 4f fc f3 3d 9d 30 2b 3d 44 42 81 3d 14 7d 82 3d
       0.119133584 0.041794408 0.06311467 0.06371513
0001a0 93 fb c8 3d 5d d8 03 3d 68 89 73 3d 34 2f be 3d
       0.09813609 0.032188762 0.059457213 0.09286347
0001b0 8f b7 cf 3d e9 89 8c 3d 7a e2 c3 3d 43 50 f2 3d
       0.10142433 0.06862242 0.09564681 0.11831715
0001c0 08 c6 37 3d 65 97 60 3d e1 4b 66 3d 78 82 a1 3d
       0.04486659 0.05483188 0.056224708 0.07886213
0001d0 9e 8c dc 3d c7 fa 86 3d b4 59 d4 3d a1 71 70 3d
       0.10769008 0.06590801 0.10368672 0.058702115
0001e0 3b a0 c6 3c fa 53 ab 3d 71 e0 b8 3d e6 12 94 3d
       0.024246326 0.08365627 0.09027184 0.07230167
0001f0 70 de b2 3d 76 fe b2 3d c9 da 8c 3d ef 44 5b 3d
       0.08733833 0.08739941 0.068776675 0.053532537
000200 7c 8e 8a 3d 0d 24 e0 3c 79 08 3b 3d 24 0e 98 3d
       0.06765458 0.02736094 0.045662377 0.07424572
000210 f7 98 af 3d 8f 05 2b 3d 61 0c 01 3d fc 02 ac 3d
       0.085740976 0.041753348 0.031505946 0.08399007
000220 a6 30 a1 3d 38 e0 bf 3d 96 1a 06 3e 63 2d 9c 3c
       0.07870607 0.09368938 0.13096079 0.01906461
000230 03 4e 8b 3d 2b 02 7f 3d b8 e5 74 3d ad 49 a2 3d
       0.06801989 0.062257927 0.05978939 0.07924209
000240 ed f7 cc 3d 2c 49 b3 3d 63 69 f1 3d a8 f0 ce 3d
       0.100082256 0.08754191 0.11787679 0.10104495
000250 53 67 82 3d 3f 9e f5 3d 53 23 1e 3d 8a cb f4 3d
       0.06367364 0.11993074 0.038607907 0.119528845
000260 02 37 96 3d 13 66 01 3e 97 b5 8f 3d 21 b2 d2 3d
       0.07334711 0.12636594 0.070170574 0.10287882
000270 d6 41 84 3d 4a 48 a9 3d 82 e4 cd 3d b6 cb d1 3d
       0.0645787 0.08265741 0.1005335 0.10243933
000280 e3 cc e9 3d b3 57 8d 3d 42 51 be 3d b8 63 cd 3d
       0.11416032 0.06901493 0.092928424 0.100287855
000290 2b 87 af 3d 75 78 fa 3c 19 a2 a4 3d f1 e8 ab 3d
       0.08570703 0.030575017 0.0803873 0.083940394
0002a0 ec 0e c8 3d a5 aa 54 3d 28 bd 6d 3d db cc b5 3d
       0.09768471 0.05192055 0.05804172 0.08876964
0002b0 e3 a6 9c 3d 90 62 ea 3d 6d 84 82 3d 7d 1f 63 3d
       0.076490186 0.114445806 0.063729145 0.05544995
0002c0 84 0b c8 3c b0 46 ef 3d 20 c8 ab 3d b2 2a 8e 3d
       0.024419554 0.116834044 0.0838778 0.06941737
0002d0 29 a9 c2 3d ad 6c 7d 3d bc cc ca 3d 39 82 6c 3d
       0.09504921 0.06187122 0.09902331 0.057741378
0002e0 7e a9 8c 3d 3d b5 ad 3d 53 8b f9 3d 8f 56 c1 3d
       0.068682656 0.08481834 0.12184777 0.09440338
0002f0 88 25 b9 3d 59 8e 2a 3d d4 14 af 3d e9 fd 26 3d
       0.09040362 0.04163966 0.085488945 0.04076949
000300 19 2c 89 3d 62 36 55 3d a2 4a a6 3d 9e 91 f5 3d
       0.06697864 0.052053817 0.08119704 0.11990665
000310 69 1f ac 3d f1 f9 8f 3d 96 10 e2 3d df ec eb 3d
       0.084044285 0.070300944 0.1103832 0.11519789
000320 07 2a d2 3d 7f 28 15 3d f6 42 bb 3d bb d8 9c 3d
       0.10261922 0.036415573 0.09143631 0.076585256
000330 fd ce c3 3d 1f 86 d9 3d fc 0a 66 3d ef 6c dc 3d
       0.09560964 0.10621285 0.05616282 0.10762965
000340 ee a2 86 3d 56 d9 8a 3d 47 f1 03 3e f4 1e ac 3d
       0.06574045 0.06779735 0.12885009 0.08404341
000350 bf b5 dc 3d 3a 3d 7d 3d 14 ff b6 3d 42 28 a3 3d
       0.10776853 0.06182597 0.08935371 0.07966663
000360 82 02 90 3d 4d 1b a5 3d 57 8d 68 3d 9a e6 de 3d
       0.07031728 0.08061848 0.056775417 0.108838275
000370 ac c8 4d 3d 02 c3 9a 3d 1b bc f1 3d 8b c2 d9 3d
       0.050240204 0.07556726 0.118034564 0.10632809
000380 e8 c2 1d 3d 0d 79 fe 3d 40 42 6c 3d b0 9b 66 3d
       0.038515955 0.12425432 0.05768037 0.05630082
000390 2b 7a a5 3d cc f9 7f 3d 6a 41 c7 3d ce 64 7e 3d
       0.08079942 0.062494084 0.097292736 0.062107854
0003a0 36 25 d5 3d 43 69 03 3d 0a 49 d4 3d bb 1c a3 3d
       0.10407488 0.032082807 0.103654936 0.07964464
0003b0 bd 14 a1 3d 2c 44 90 3d 92 13 8f 3d 56 56 d1 3d
       0.07865284 0.07044253 0.069861546 0.102215454
0003c0 45 df 94 3c fb b1 42 3d 01 44 78 3d 59 1c cf 3d
       0.01817287 0.047533017 0.06061173 0.10112829
0003d0 db e5 d4 3d af f7 c4 3d 63 15 80 3d d3 80 8e 3d
       0.10395404 0.096175544 0.06254079 0.06958165
0003e0 c0 ff b9 3d 20 27 ca 3d d8 dc 78 3d 9e 71 bb 3d
       0.090819836 0.09870744 0.060757488 0.0915253
0003f0 fc 7f b0 3d c1 53 90 3d 34 b0 9b 3d c7 0c a7 3d
       0.08618161 0.07047225 0.076019675 0.08156734

second_layer.weight f4 [300, 404]
000000 d4 78 59 3d 0d 5d ff bc 99 da eb bc 93 29 be 3c
       0.053093746 -0.0311723 -0.028790759 0.023213184
000010 a8 e9 9f 3b 23 70 75 3c f1 9d 41 bc 42 4c 0f 3d
       0.004880149 0.014980349 -0.011817441 0.034984834
000020 65 b8 00 3d 2c 43 00 3c c8 46 88 bc c3 da 53 bd
       0.031425852 0.007828515 -0.016635314 -0.0517223
000030 51 7d 68 3d 89 a0 c2 bc f7 92 a7 bd 1d 33 74 3c
       0.056760136 -0.02375819 -0.08182328 0.0149047645
000040 8e 66 1c 3d f4 ed b7 bc c8 e7 fd 3c 19 36 45 3c
       0.03818374 -0.022452332 0.030994311 0.012036824
000050 37 43 80 3d 07 97 88 bb cf 01 0c bd 95 eb 33 bd
       0.0626282 -0.0041683945 -0.034181412 -0.04392584
000060 44 03 aa 3c 8f 68 80 bd f2 01 65 bd 26 0d 8c bd
       0.02075351 -0.06269943 -0.05591006 -0.06838445
000070 7e d6 34 bc f2 93 9b 3c e5 bf 26 3d 22 41 df bc
       -0.011037467 0.018991444 0.04071035 -0.027252737
000080 d6 cf 81 3c 6e 92 41 3c b7 50 c4 3c 58 b0 6c 3c
       0.015846174 0.011814697 0.02396427 0.0144463405
000090 f7 f3 83 bc 7a 7f 93 3c cf e7 4a bd 82 7c 0d 3d
       -0.016107542 0.018005121 -0.049537476 0.034542568
0000a0 ca 85 89 3c fd 5c 8a bc 95 67 70 3c 44 63 c6 ba
       0.016787428 -0.016890043 0.014673133 -0.0015135785
0000b0 94 60 c5 3b 30 67 63 3d 9f d8 a7 bd 3e 2c 62 bc
       0.006023476 0.05551833 -0.08195614 -0.0138044935
0000c0 66 f2 c3 bb 18 cb 6c 3d d0 29 e3 bc d9 fa 15 bd
       -0.005979824 0.057810873 -0.027729899 -0.03661618
0000d0 2f 6b 9d ba 91 5c f1 bc 29 1e 27 3d 24 c5 28 3d
       -0.0012010093 -0.029463084 0.040800247 0.041203633
0000e0 22 79 25 bc b6 39 d8 bc d7 4f 9b bd 58 cc d3 3c
       -0.010099681 -0.026394706 -0.075835876 0.025854275
0000f0 bf f3 f2 bc 0e 6b 9e bd 2f 30 1d 3d 20 7a ee bb
       -0.029657243 -0.07735263 0.03837603 -0.007277742
000100 28 26 91 3d 31 b6 56 3d ed 87 7f 3c f7 dc 8f 3d
       0.07087356 0.052419845 0.015596372 0.070245676
000110 9e a4 5b 3d 7f da b7 bb 8d 8c 81 3c e3 31 a6 3d
       0.053623788 -0.0056107636 0.01581409 0.08114984
000120 85 28 ce 3c 90 4c ef b9 91 6e 98 3c 08 7f 26 bd
       0.025165806 -0.00045642676 0.01860741 -0.04064849
000130 8c e3 4c bc 9e 2b c2 bd 46 fe 3c 3d 4c 96 55 bd
       -0.012505423 -0.094809756 0.04614093 -0.052145287
000140 07 cd c6 bd b1 fd 14 3d 12 62 c4 bd b8 ff c7 bd
       -0.097070746 0.03637475 -0.09589018 -0.09765571
000150 cb 0a ba bc 9e e3 53 3c 14 88 70 3b 96 09 01 be
       -0.022710225 0.012932686 0.0036702203 -0.12601313
000160 83 a7 63 3c c5 7e 11 bc fd da 6c 3d 3c 8b 4c bd
       0.013894918 -0.008880322 0.05782603 -0.04993747
000170 10 78 8e bc 99 85 e6 bc d4 cb 34 bd 1f 27 83 bd
       -0.017391235 -0.028139876 -0.0441397 -0.06403946
000180 0a 9c 8c bd 1d 4f 28 bd 05 85 02 bd 03 57 79 bc
       -0.068656996 -0.041091073 -0.03186514 -0.015218499
000190 ae d4 aa bc fa 21 0e 3c 1c 37 0b 3d 1e af 37 3d
       -0.020853367 0.008675093 0.033988103 0.04484474
0001a0 0d 53 87 3d df 02 4d 3d 35 77 08 3d 4e 6f 99 3c
       0.066076376 0.050051566 0.03331681 0.018729832
0001b0 ed cd 0c bd 99 e2 6a 3d 49 8e 4f bc 09 67 c0 bb
       -0.034376074 0.057345007 -0.012668201 -0.0058716577
0001c0 a4 80 fb 3b 74 67 26 bd e5 33 c2 bd 50 89 f9 bc
       0.0076752473 -0.040626004 -0.09482554 -0.030460984
0001d0 d2 0f a5 3c 71 3e 27 bd e2 20 77 bd b8 4a 7b 3d
       0.020149145 -0.040831033 -0.060334094 0.061350554
0001e0 03 89 05 3d 68 f7 67 bb 98 44 f3 3c 07 42 b5 bd
       0.032601368 -0.0035395268 0.029695794 -0.08850484
0001f0 ea fb d3 bd 4b 82 01 3d 5a 36 53 bc f2 7b 6a 3d
       -0.10350783 0.031618398 -0.012891376 0.05724711
000200 b3 f4 bd 3c c2 1c 08 bd 7a b9 d9 bc 29 1c 5d 3d
       0.02318797 -0.03323055 -0.0265777 0.053981934
000210 ba 2d ca 3c 85 4e 58 bd 08 6c 0b bd 9a 09 32 bb
       0.024680007 -0.052809257 -0.034038574 -0.0027166368
000220 af 95 7f 3d d6 36 a2 bc 4d 08 aa bd 4d dd 59 3c
       0.06239861 -0.019801538 -0.083023645 0.013297391
000230 b9 d4 31 3d 39 3d 0f 3e 47 2b 8b 3d db 0b 13 bd
       0.04341576 0.13988198 0.06795364 -0.035899978
000240 3a fd a3 3d f0 35 d6 bc 08 a5 cb b9 85 bf d5 ba
       0.080072835 -0.026148766 -0.00038842135 -0.0016307688
000250 e5 dc cd bd ff e7 d4 3d 5e 16 57 3d 21 77 11 3d
       -0.10051898 0.10395812 0.052511565 0.035514
000260 81 bf bf 3b 86 62 17 3d 90 00 48 3c 9d 75 f7 bc
       0.0058516865 0.036959194 0.012207165 -0.03020745
000270 fa 6c 9c bc 9c 2c 97 bc d2 6d f6 bc 1d ca 2d 3d
       -0.019094933 -0.018453889 -0.030081663 0.04242908
000280 ea e5 df 3c ff f0 8c bd 94 b4 f9 3c 03 47 df bc
       0.027331311 -0.06881904 0.030481614 -0.02725554
000290 2b e6 59 bd 0d 7b 5c 3d f4 cb 52 bc 22 ad 95 bd
       -0.05319802 0.053828288 -0.012866009 -0.07308413
0002a0 0c 22 03 bd ab 9b cd bc 92 a3 1a 3d 99 6d ba 3d
       -0.03201489 -0.025098642 0.03775365 0.09102935
0002b0 a2 10 aa 3b ad 70 ad bb 88 ce 4f 3d 9f f1 43 bd
       0.005189971 -0.005292973 0.050734073 -0.04783785
0002c0 5e b0 04 3d 31 79 64 3c 97 3e 9a bd d5 b8 52 3d
       0.03239476 0.01394491 -0.07531469 0.0514458
0002d0 7b 93 ff 3c c5 f6 05 3d ee 93 7a 3d 93 55 25 bd
       0.031198254 0.03270604 0.061176233 -0.040364813
0002e0 d5 a6 db 3c b3 1e e4 bd 8a 94 b7 3a af 32 d0 bc
       0.02681295 -0.11138668 0.001400606 -0.025414793
0002f0 60 80 89 3c 41 44 bf 3d 28 43 84 bd ea b1 59 bd
       0.016784847 0.0933919 -0.064581215 -0.053148188
000300 f6 a5 c4 bd 2c 07 27 bd 06 f2 b2 3d a8 7a 7e 3d
       -0.09601967 -0.040778324 0.087375686 0.062128693
000310 f4 80 88 bd 54 21 81 bd 78 69 44 bd cf 28 23 3d
       -0.06665221 -0.06305185 -0.047952145 0.03983384
000320 2a ee d6 3d 5b 01 af 3c f6 79 4b 3b d1 ae 1f 3d
       0.10494645 0.021362951 0.0031048036 0.038985077
000330 95 8f be bd 22 91 3a 3d 7d ed 60 bd 5d e5 72 3d
       -0.0930473 0.045548566 -0.054913986 0.05930077
000340 9b c8 78 3c 41 61 95 3c 49 07 b1 3c e3 09 41 bd
       0.015184547 0.01823485 0.02160992 -0.04712857
000350 59 a3 62 3c 48 5d 83 3d 02 76 b8 bc 6e b1 6f 3d
       0.01383289 0.06414276 -0.022517208 0.05851882
000360 11 19 10 3b 27 2b 9c bc 0c af 38 bd 7d 52 58 3d
       0.0021987597 -0.019063545 -0.045088813 0.052813042
000370 dc 43 b5 bc a6 3a c4 bc 47 6f 1b bd ed 96 8a 3b
       -0.022127084 -0.023953747 -0.03794792 0.0042294175
000380 e6 b7 91 3d 40 a5 18 bd 4f e1 ce bc 7f ce 5a bd
       0.07115154 -0.03726697 -0.02525392 -0.053419586
000390 b7 d1 c7 bb d0 bf 82 bd 3d 69 62 bd ee 85 0c bd
       -0.006097998 -0.063842416 -0.055276144 -0.034307413
0003a0 0d c9 01 39 a1 5e 44 bd 51 cb 04 bd 6a 8d a2 bd
       0.00012377296 -0.047941808 -0.03242046 -0.07937129
0003b0 27 31 26 bc 05 a4 9a bd a9 75 99 bd db 01 25 bd
       -0.010143555 -0.075508155 -0.07493145 -0.040284973
0003c0 60 b3 fe bc 8d a7 84 bb 29 53 7b bc 9d d3 49 bd
       -0.031091392 -0.004048294 -0.015339651 -0.049274076
0003d0 b5 c9 73 3c c0 8b 98 3c f4 ab f9 bd 85 a6 30 3d
       0.014879634 0.018621325 -0.121910006 0.043127555
0003e0 11 52 d1 bd 09 29 76 bc 94 e9 1c 3d 35 d8 82 bd
       -0.10220731 -0.015024432 0.038308695 -0.063888945
0003f0 bf fa b8 bd fb f1 04 be de e0 57 3c 81 8b 71 bc
       -0.09032201 -0.12982933 0.013176171 -0.014742733

second_layer.bias f4 [300]
000000 a2 94 d6 3d 01 3b 9e 3d 4e 93 a0 3d 57 df 0d 3e
       0.10477568 0.07726098 0.07840596 0.13854729
000010 00 8b e3 3d 7a e0 86 3d 2f d5 02 3e ef fc 86 3d
       0.111104965 0.06585784 0.12776636 0.06591212
000020 62 78 a3 3d db a0 d5 3d d5 9c a1 3d e2 3f 17 3e
       0.079819456 0.10431071 0.078912415 0.14770463
000030 44 34 94 3d 5e 23 0b 3e 01 d4 1a 3e 23 62 f3 3d
       0.072365314 0.1358771 0.15119936 0.118839525
000040 92 0f 8f 3d 07 df 09 3e f8 fc ff 3d 7a 92 b4 3d
       0.06985392 0.13463984 0.12499422 0.08817001
000050 fc b0 99 3d b4 1d 06 3e 19 84 a0 3d c5 75 04 3e
       0.0750446 0.13097268 0.07837696 0.1293555
000060 84 cc 70 3d 95 6f b3 3d 22 6c 83 3d 64 51 a7 3d
       0.05878879 0.08761517 0.06417109 0.08169821
000070 64 60 fb 3d f5 c0 89 3d 52 84 97 3d 27 35 20 3e
       0.122742444 0.06726257 0.07398285 0.15645276
000080 a4 df 00 3e 7f 58 10 3e c8 e6 4f 3d 19 33 0d 3e
       0.12585312 0.14096259 0.0507572 0.13789023
000090 6b f5 ec 3d b2 5e 10 3e ef 1a 58 3d bd 8e e1 3d
       0.11570247 0.14098623 0.05276006 0.11013553
0000a0 de a3 96 3d 3f 23 f4 3d 9e c7 91 3d fe 75 09 3e
       0.07355474 0.11920785 0.07118152 0.13423917
0000b0 7d b8 a5 3d c6 da 03 3e 36 0e e0 3d 85 8d 12 3e
       0.08091829 0.12876424 0.109402105 0.14311798
0000c0 02 e1 8f 3d 84 db 81 3d 84 d8 0c 3e 6a 08 1f 3e
       0.07025339 0.063406974 0.13754469 0.15530553
0000d0 c4 9b e9 3d db db 15 3e 5b 99 e2 3d 60 92 09 3e
       0.11406663 0.1463465 0.110644065 0.13434744
0000e0 1d c4 67 3d 54 67 14 3e 63 c8 9e 3d c4 72 0b 3e
       0.056583513 0.14492542 0.077530645 0.13617998
0000f0 62 b9 e2 3d ff fc 83 3d 1d 17 be 3d 67 8d 03 3e
       0.11070515 0.064447396 0.09281752 0.1284691
000100 bd b5 01 3e 49 15 23 3e 0c a4 95 3d 33 04 ea 3d
       0.12666984 0.15926088 0.0730668 0.11426582
000110 6d e8 c0 3d 61 f1 70 3d 7b 52 f7 3d ad 33 54 3d
       0.09419332 0.058823947 0.12076279 0.051807094
000120 b5 d5 1f 3e f6 1a ba 3d 85 5e 0b 3e 07 eb fd 3d
       0.15608867 0.09087174 0.13610275 0.123983435
000130 ea 49 a0 3d f3 95 5f 3d 09 39 c0 3d b4 dc a8 3d
       0.07826598 0.054586362 0.093858786 0.08245221
000140 b9 f1 1c 3e 35 c7 02 3e 69 5f 94 3d 91 41 0d 3e
       0.15326585 0.12771304 0.072447605 0.13794543
000150 de 6d a6 3d 93 25 05 3e 8a aa af 3d 74 cd ad 3d
       0.08126424 0.13002615 0.085774496 0.08486453
000160 dc ae f2 3d 68 ce 6a 3d e8 64 df 3d ac 6f dc 3d
       0.11849758 0.05732575 0.10907918 0.10763487
000170 c6 b1 f4 3d d4 f7 01 3e b5 ef 12 3e 35 68 20 3e
       0.1194797 0.12692195 0.14349253 0.15664752
000180 ef f0 f2 3d 0e 17 08 3e 86 46 fb 3d 3d 95 15 3d
       0.11862361 0.13290045 0.12269311 0.036519278
000190 ae 93 97 3d 23 15 a9 3d ae 96 f1 3d 8f 5c ef 3d
       0.074012145 0.08255985 0.11796318 0.11687576
0001a0 51 6a 0f 3e 2c 0d 97 3d d2 f6 9b 3d ee df e4 3d
       0.140054 0.07375559 0.076154366 0.11175524
0001b0 ac 4c 8b 3d a4 d6 ec 3d e1 af 93 3d 58 67 a4 3d
       0.068017334 0.11564377 0.072112806 0.08027524
0001c0 5a 85 a4 3d 38 0f a8 3d 95 00 aa 3d 8e ab 7e 3d
       0.08033247 0.08206028 0.08300892 0.062175326
0001d0 f3 be a4 3d 85 bb dd 3d 11 45 f0 3d f0 4e aa 3d
       0.08044233 0.10826782 0.11731923 0.083158374
0001e0 d9 6d d6 3d 87 9f 8d 3d d0 45 0d 3e 38 b8 93 3d
       0.104701705 0.06915193 0.13796163 0.07212871
0001f0 e5 1d 16 3e c8 ed e0 3d 21 0e 24 3d da 2f 9e 3d
       0.14659841 0.10982853 0.040052537 0.07723971
000200 34 70 0c 3e 73 99 c7 3d d6 2c 0c 3d e4 67 3a 3d
       0.13714677 0.09746065 0.034222446 0.045509234
000210 fb c4 a7 3d d4 35 8a 3d bf 3f 20 3e 94 fd a5 3d
       0.08191868 0.06748548 0.15649317 0.08105007
000220 11 7d e2 3d 05 68 9a 3d 47 62 0d 3e 0f ab aa 3d
       0.11059011 0.075393714 0.13807021 0.08333408
000230 fa 85 e5 3d 67 a6 95 3d d5 ae c3 3d bf 68 14 3e
       0.112071946 0.07307129 0.09554831 0.14493082
000240 40 57 10 3e 96 ca 0c 3e 9c db ec 3d dc 8b f7 3d
       0.14095783 0.13749155 0.11565325 0.12087223
000250 ac f0 a9 3d 07 7b 4a 3d 46 3f e1 3d d6 4b ec 3d
       0.08297858 0.049433734 0.109983966 0.11537902
000260 a9 37 85 3d 84 36 a2 3d eb 8a 0f 3e 2b c2 08 3e
       0.06504757 0.07920554 0.14017837 0.13355319
000270 27 9f 02 3e 1e 16 7e 3d 00 34 01 3e 67 09 8a 3d
       0.12756024 0.06203281 0.12617493 0.067400746
000280 b2 8c 31 3e 77 70 ef 3d c2 86 03 3e e5 46 8d 3d
       0.17338827 0.11691373 0.12844375 0.06898288
000290 4d 64 ea 3d 56 c9 95 3d 9e b6 01 3e b0 4c 0d 3e
       0.11444912 0.073137924 0.12667319 0.13798785
0002a0 f3 be d8 3d 27 18 82 3d 12 fe a6 3d 6a 85 a3 3d
       0.10583296 0.06352263 0.08153929 0.07984431
0002b0 cb 24 bb 3d cf 2b b9 3d 58 7f 9d 3d 40 e5 08 3e
       0.09137877 0.09041559 0.076903045 0.13368702
0002c0 5d 8b c4 3d 53 28 0a 3e 16 5d 10 3e 04 e4 b0 3d
       0.09596894 0.13491945 0.1409801 0.086372405
0002d0 a9 ee e2 3d 55 68 08 3e 99 ae 96 3d d5 fe f6 3d
       0.11080677 0.1332105 0.073575206 0.12060324
0002e0 ec 03 34 3d 8e 45 68 3d 9e cc db 3d 15 c8 01 3e
       0.043949053 0.056706958 0.10732387 0.12673981
0002f0 ad 34 c4 3d ad be 77 3d 8e da 80 3d 97 f7 91 3d
       0.095803596 0.060484577 0.06291686 0.07127302
000300 22 37 09 3e 94 08 8a 3d e0 b9 21 3e 1c f8 26 3e
       0.13399938 0.067399174 0.15793562 0.16305584
000310 eb 7c 75 3d 4c 13 09 3e fd bb a9 3d d3 e8 1d 3e
       0.059933584 0.13386267 0.08287809 0.15420847
000320 cf 06 d8 3d 89 ab a7 3d 54 41 89 3d a6 f1 86 3d
       0.10548174 0.081870146 0.067019135 0.065890595
000330 14 39 20 3e 6f 10 08 3e b1 35 d4 3d ce a5 9e 3d
       0.15646774 0.13287519 0.10361803 0.077464685
000340 f1 d6 b8 3d 4f 50 14 3e 46 ba e7 3d 10 a0 13 3e
       0.09025372 0.1448376 0.11314826 0.14416528
000350 24 6f 12 3e cf 29 16 3e 14 25 d6 3d 9b 90 fc 3d
       0.1430021 0.14664386 0.10456291 0.12332269
000360 ea 65 9a 3d fc 01 ff 3d be 8a b1 3d 9e 51 1a 3e
       0.0753897 0.1245155 0.08669041 0.15070197
000370 5b 30 09 3e 2f c4 9f 3d 3b de 9b 3d df ac b3 3d
       0.13397352 0.07801091 0.076107465 0.08773207
000380 d7 cc 6e 3d ef 6f 08 3e 89 58 1a 3e c7 cf 60 3d
       0.05830082 0.1332395 0.15072836 0.054885652
000390 9c 46 06 3e d9 e7 ad 3d d1 af b3 3d 39 40 03 3e
       0.13112873 0.08491487 0.08773769 0.12817468
0003a0 97 9d 16 3e 1c a0 84 3d 74 b2 03 3e 05 a5 df 3d
       0.14708553 0.06475851 0.12861043 0.10920147
0003b0 c0 da 0a 3e 00 40 9a 3d 0a 91 8e 3d bd 26 ee 3d
       0.13560009 0.07531738 0.06961258 0.116284825
0003c0 0e da ff 3d 33 16 03 3e ae 49 2e 3d a2 e6 a1 3d
       0.124927625 0.12801437 0.042550735 0.07905318
0003d0 c6 c7 9f 3d f1 ff 17 3e 4e 1c c3 3d 2d 70 05 3e
       0.07801776 0.14843728 0.09526883 0.13031073
0003e0 56 48 91 3d dd 31 19 3e 19 08 f8 3d 07 3b a4 3d
       0.07093875 0.14960428 0.121109195 0.08019071
0003f0 83 14 f2 3d db 4a 87 3d 9d ff a8 3d 77 d0 93 3d
       0.118203185 0.066060744 0.08251879 0.07217496

output_layer.weight f4 [1, 300]
000000 c9 fe 08 3d e4 84 1c bd a9 d5 ac bd c8 60 93 3d
       0.033446107 -0.038212672 -0.0843919 0.07196194
000010 7b 10 26 3d 19 91 da bd a8 0d 7c 3d c2 9d 13 bd
       0.04054306 -0.106722064 0.06153646 -0.03603912
000020 60 31 e0 bc 46 72 da 3d 5e de 02 be c7 a9 54 3d
       -0.027367294 0.10666327 -0.12780139 0.051919725
000030 a2 16 28 bd 42 46 91 3d e1 0d 5b 3d 42 13 29 3d
       -0.04103721 0.07093479 0.053480033 0.04127813
000040 ad 05 15 bd 77 7c 4f 3d b0 e6 9e 3d b3 1e dc bd
       -0.036382366 0.05065581 0.07758844 -0.10748043
000050 82 de 8b bd 51 de 1a 3d f1 51 8c bc 5b f0 0a 3d
       -0.06829549 0.037809674 -0.017128916 0.033920627
000060 d3 3a b9 bd ed 86 36 bd eb 77 da bd f7 ba c8 bc
       -0.09044423 -0.04456227 -0.10667404 -0.024503214
000070 8b 8f fa 3c 60 1b 64 bd c6 3b 4f be 82 09 46 3d
       0.030586025 -0.05569017 -0.20237646 0.04834891
000080 16 08 6c 3d 7a 5a 66 3d 4b 71 cf bd f0 e4 89 3d
       0.0576249 0.05623863 -0.10129031 0.067331195
000090 e5 4f d7 3d c0 86 5f 3d 6e 14 ef bd 09 a6 2c 3d
       0.105132855 0.054571867 -0.116738185 0.04215053
0000a0 bb 3e 3c bd 1d cc 92 3d a5 ee c0 bd 72 24 77 3d
       -0.045958262 0.07167838 -0.09420518 0.06033749
0000b0 a2 ec 8d bd e0 92 b1 3d b0 82 ca 3d 56 51 67 3d
       -0.069299 0.08670592 0.09888208 0.056474052
0000c0 9e 3e a3 bd 00 04 0a be 44 11 a6 3d c5 bc 53 3d
       -0.07970928 -0.13478088 0.08108762 0.051693697
0000d0 f9 7e 3c 3d 4d 09 50 3d 1e 27 0e 3e d9 72 03 3d
       0.046019528 0.05079012 0.1388211 0.03209195
0000e0 f2 17 e1 bd 68 55 63 3d 2f dc 6e bd bd 01 3e 3d
       -0.10990895 0.05550137 -0.058315452 0.046388377
0000f0 63 9e 50 3d 2c 33 46 bd fc e5 e1 bd 23 9c d0 3d
       0.0509323 -0.048388645 -0.11030194 0.10186031
000100 5f e7 46 3d 18 09 45 3d 53 4f a0 bc 04 a0 61 3d
       0.048560496 0.048104376 -0.019569075 0.055084243
000110 fa ee e1 bd eb 8b 04 bd 4b e1 70 3d ad cd 4e bd
       -0.11031909 -0.03236 0.058808606 -0.050489116
000120 59 1a 87 3d 54 40 7b bd 0d f0 5f 3d 2d 0a 88 3d
       0.06596822 -0.061340645 0.05467229 0.06642566
000130 01 a8 ed bd 70 81 c6 bd a3 53 64 3d c4 74 8b bd
       -0.1160431 -0.09692657 0.055743825 -0.06809381
000140 4e 03 6d 3d e3 e2 4a 3e 38 aa 7b bd 06 f3 12 3d
       0.05786448 0.19813113 -0.06144163 0.035876296
000150 8a b8 ac bd bc ac 2b 3d 31 c8 74 bd d4 27 40 be
       -0.084336355 0.04191278 -0.05976123 -0.18765193
000160 6b 0f 30 3d 0f f3 dc bd 03 08 99 3d 8d 95 73 3d
       0.042983454 -0.10788547 0.07472231 0.059468795
000170 75 14 02 3e 30 54 52 3d 73 57 60 3d 3a 47 74 3d
       0.12703116 0.05134982 0.054770898 0.05963824
000180 23 7c 43 3d 92 f0 93 3d 49 2c 94 3d 76 b5 16 be
       0.047725808 0.072236195 0.07235009 -0.1471766
000190 ed e6 be bc 87 95 9f bd ca 98 02 3e 10 73 41 3d
       -0.023303473 -0.07792192 0.12753597 0.047228873
0001a0 b6 e2 17 3d eb d0 11 3e ea c0 cd bd 4b 7c 1c 3e
       0.037081443 0.14239852 -0.10046561 0.15281789
0001b0 54 71 22 be 3c bd 83 3d 87 1c 64 be 54 98 a7 be
       -0.15863544 0.06432578 -0.22276507 -0.32733405
0001c0 25 bb 04 be e8 b3 e8 bc b6 7b 57 bd 7f c7 49 be
       -0.12962015 -0.028406098 -0.052608214 -0.19705008
0001d0 01 6a 01 bd 93 da 5a 3d 6d ae fe 3c db e6 28 bd
       -0.031595234 0.053431105 0.031089032 -0.041235786
0001e0 87 5e fd 3d f6 19 d6 bd 80 86 a6 3d a9 f6 87 bd
       0.12371545 -0.104541704 0.081311226 -0.066388436
0001f0 a7 4b 5b 3d 8d 84 11 3e 06 1a 29 bd e2 99 1f bd
       0.053538945 0.1421072 -0.041284584 -0.038965113
000200 99 f6 45 3d e3 89 7f bd 62 8e a8 bd a5 a8 a4 bd
       0.048330877 -0.06238736 -0.08230282 -0.08039979
000210 94 9e 3f bd db fc 95 be c1 0b 9f 3d 8e c9 db bc
       -0.04678209 -0.29294476 0.07765914 -0.026829507
000220 15 c0 84 3d 42 dd 08 be c7 76 60 3d 8e 0d fe bd
       0.06481949 -0.13365653 0.054800775 -0.12404929
000230 ef ca aa 3d 77 fd 58 bc 19 a3 8a bd a3 a5 46 3d
       0.08339488 -0.0132440245 -0.0676939 0.048497807
000240 f0 c0 73 3d 47 13 4d 3d e4 cd 62 3d 70 6b 20 3d
       0.05951017 0.050067212 0.055372134 0.03916496
000250 51 8b 6d bd 61 0d de bd 3f 36 3c 3d ec f3 96 3d
       -0.05799419 -0.108423956 0.04595017 0.07370743
000260 af dd 05 bd 0c 99 cb bd 1f 41 49 3d 5d 6b 64 3d
       -0.032682117 -0.09941301 0.04913437 0.055766452
000270 a3 df d8 3d 8c 4f 30 be b8 ec 16 3d 04 ee 1c bd
       0.1058953 -0.17217845 0.036846846 -0.038312927
000280 4d 5e 51 3d f9 ee 6e 3d 50 3e 99 3d 84 ee ff bd
       0.051115323 0.05833337 0.07482588 -0.12496665
000290 43 c1 21 3d 0b 0f 4a bd b7 98 c6 3d c6 27 85 3d
       0.03949095 -0.049330752 0.09697097 0.06501727
0002a0 1c 30 49 3d c5 bb 4d bd 91 15 65 bd 1c 7e 50 bd
       0.049118146 -0.0502279 -0.05592877 -0.050901517
0002b0 8c 3a 83 bd 07 6c f1 bd 7c 1f 59 bd 08 8b 8c 3d
       -0.06407651 -0.11788183 -0.05300854 0.068624556
0002c0 0e c9 a9 3d ff b9 8f 3d 3b 13 92 3d f5 73 27 bd
       0.08290301 0.07017898 0.07132574 -0.04088207
0002d0 5f 94 59 3d c3 50 4b 3d 87 6a 17 be 9d 1a 1c 3e
       0.053120013 0.049637567 -0.1478673 0.15244527
0002e0 47 7e b3 bd c2 87 3d be 1e a4 aa 3d 71 01 cb 3d
       -0.0876432 -0.18508819 0.08332084 0.09912384
0002f0 03 ca ff bd f4 62 46 be da 6e 39 bd 99 59 2c bd
       -0.124897026 -0.19373685 -0.045271732 -0.042077634
000300 6c 46 44 3e 3d cd d4 bc be a0 88 3d a9 96 74 3d
       0.19167489 -0.025976771 0.06671284 0.059713993
000310 4d 2d 26 be 63 1a 2c 3d 0c a4 54 bd 5c fe 80 3d
       -0.16228218 0.04201735 -0.05191426 0.06298515
000320 d8 40 8f be 1a 5b 60 bd f7 f3 47 bd 45 46 30 be
       -0.2797916 -0.05477438 -0.048816647 -0.17214306
000330 63 86 62 3d 72 4c 8d 3d b3 77 c0 3d ca c2 f0 bc
       0.055303942 0.068993464 0.09397831 -0.029389758
000340 fd 2f 79 bd cf ed 82 3d 3d 5a 39 3e d2 c3 2a 3d
       -0.06083678 0.06393015 0.1810083 0.041690655
000350 74 a3 8d 3d 28 d2 38 3d f8 00 3c 3d 08 39 0c 3d
       0.06915942 0.045122296 0.04589936 0.034234077
000360 a1 b7 5e bd d6 97 68 3d ad 05 3b bd 05 72 67 3d
       -0.05437434 0.056785427 -0.04565971 0.056505222
000370 5c 95 44 3d b6 4d 9c bd b0 41 28 bd e4 c5 20 bd
       0.047994003 -0.0763201 -0.04107827 -0.039251223
000380 75 8a b5 bc a8 1f 40 3d f8 29 59 3d c9 2e 06 bd
       -0.022160748 0.04690519 0.05301854 -0.03275946
000390 9c bd 3c 3d 62 51 0b be 63 56 04 3e 4c 5c 56 3e
       0.046079263 -0.13605264 0.12923579 0.20933646
0003a0 98 f2 5c 3d 90 49 ba bc e9 8a 11 3e cb fc 1f 3d
       0.053942293 -0.022740155 0.14213146 0.03905944
0003b0 ae c6 5e 3d 0b d7 f6 bc fb 67 57 bc f2 ba 07 3e
       0.054388694 -0.030131837 -0.0131473495 0.13254908
0003c0 9d ae 82 3d 19 53 bf 3d ca 40 8b bd 9e a4 02 bd
       0.06380961 0.093420215 -0.06799467 -0.031895272
0003d0 7c 5d b8 bd 3a 27 a4 3d ab dc 33 3e 79 10 75 3e
       -0.09002206 0.080152944 0.17564647 0.23932065
0003e0 77 ee 35 bc 5c d0 10 3d 00 fc 05 3d 0c b8 aa bd
       -0.011104218 0.035354957 0.03271103 -0.083358854
0003f0 f9 ce b6 3d 20 50 ca bc a4 6c fe bd 7b d7 36 bd
       0.08926196 -0.02469641 -0.12423065 -0.044639092
