checkpoint_actor.pth (torch_old, 541598 bytes, 6 tensors)

hidden_layers.0.weight f4 [400, 33]
-0.15115014 0.6360134 0.12262238 -0.15151444 0.06681361 0.6198266 0.041718494 -0.2727179
-0.6114335 0.05389863 -0.092508875 0.3449669 0.48176846 0.02682056 0.28380114 0.36426184
0.41769817 -0.35458204 0.2655666 -0.54741323 0.45846313 -0.14313002 0.4291201 -0.3146282
0.20428179 0.21031332 0.02633741 1.0786114 0.061011035 0.049657617 -1.0822812 -0.028602464
1.1123695 -0.7243978 -0.34756735 0.45597288 -0.058026556 -0.34896863 0.55871946 -0.026080066
0.1539544 -0.086989455 0.66555554 -0.04137988 0.25828165 0.14672145 0.45075962 0.7111667
-0.17872849 0.4269874 -0.08610537 0.26069224 -0.080083825 0.06534665 -0.16565119 -0.15787576
0.2728604 0.23084596 0.041827966 -0.4578747 0.53784806 0.18709497 -0.041183244 -0.49683514
-0.011414509 0.5028033 0.035801936 0.5007377 0.5776411 -0.47761637 0.22326311 0.35346922
-0.009473929 -0.5082635 0.80842435 -0.71346754 -0.3163578 0.2608897 0.2468102 -0.47084382
0.14966425 -0.06494942 0.21338262 -0.28835076 -0.27964053 -0.11804811 -0.01283118 -0.04204627
-0.15651996 -0.15296859 -0.17801459 0.4393757 0.5140148 0.45387957 0.21973309 -0.034138605
-0.5153738 0.04606835 -0.347891 0.5993507 0.45527112 0.22589487 -0.43314558 -0.2644949
0.5297027 0.5992219 0.044949673 0.5094773 0.15131128 0.00019676446 0.18327612 -0.09418172
-0.05908103 -0.15434182 -0.07982664 -0.38755342 0.13420993 0.08251611 0.1128156 0.3463795
0.5206614 0.14447208 -0.05216361 0.40932128 0.14503998 -0.023750884 0.6443848 0.11852459
-5.0626695e-05 -0.68322754 -0.000518851 -1.6089858 -0.17590259 0.38422376 0.014558428 -0.05192848
-0.17036244 -0.82205635 0.44643357 -0.6458456 0.012901136 -0.580368 -0.28199643 0.16510634
-0.10807007 -0.11903824 0.520486 0.46484342 -0.3507805 -0.8692292 0.21884756 -0.076493196
0.28491682 -0.76735854 0.06990928 0.17054929 0.06563454 -0.36553714 0.22220059 0.50008285
-0.08487127 -0.0379647 -0.5255173 -0.009385206 1.3532532 -0.50412744 -0.31404227 -0.18470651
-0.3003964 -0.008480298 0.084674224 -0.16548008 -0.128808 -0.48101884 -0.2890578 -0.11650816
0.14357102 -0.15520555 -0.078682244 0.4388467 0.12268368 0.3793736 -0.22253992 0.042404212
-0.06808587 -0.25033438 0.49558166 -0.07514129 0.43315375 -0.104600295 0.5082412 0.12741338
0.52159774 0.045116987 0.046912704 -0.47586352 0.0009202771 -1.5661241 0.04585034 -0.24362193
0.785503 -0.030105107 0.508351 -0.01479858 0.25793222 -0.12815568 -0.7959531 -0.023691297
0.071822606 -0.12853989 -0.09229696 0.024744825 -0.1514583 -0.6812838 -0.034078762 -0.16886945
-0.25163686 -0.14166503 -0.15181522 0.11728385 -0.115072384 -0.017293375 -0.10091179 -0.015884
-0.16776885 0.4941615 -0.08347653 -0.042831894 -0.51504743 0.01055352 -0.32892567 -0.16158101
0.5840654 0.16847776 -0.38941026 -0.057813223 -0.43899706 0.35300103 -0.70794874 0.92248505
0.6125036 -0.22982866 -0.5066786 0.023133542 0.31503776 0.30635196 -0.05492937 0.64873475
0.046386022 -0.49162388 0.13872027 0.46349984 -0.20644529 0.04531093 0.3760224 0.21594039
00000000: 1ac7 1abe c6d1 223f 7121 fb3d 9a26 1bbe
00000010: 93d5 883d f5ac 1e3f 03e1 2a3d aea1 8bbe
00000020: e886 1cbf cfc4 5c3d 4b75 bdbd 809f b03e
00000030: 5baa f63e cbb6 db3c 624e 913e 8780 ba3e
00000040: 89dc d53e c78b b5be 58f8 873e 4623 0cbf
00000050: aebb ea3e ad90 12be a1b5 db3e f316 a1be
00000060: 3f2f 513e 605c 573e 8dc1 d73c f00f 8a3f
00000070: b5e6 793d c965 4b3d 3188 8abf b74f eabc
00000080: 2062 8e3f 2272 39bf 59f4 b1be 4775 e93e
00000090: 41ad 6dbd 04ac b2be 3d08 0f3f dda5 d5bc
000000a0: 39a6 1d3e 8727 b2bd d961 2a3f f37d 29bd
000000b0: 7e3d 843e 263e 163e f7c9 e63e 050f 363f
000000c0: 9a04 37be 189e da3e 0358 b0bd 7479 853e
000000d0: fd02 a4bd 77d4 853d 77a0 29be 2faa 21be
000000e0: 5cb4 8b3e e262 6c3e cd53 2b3d 8d6e eabe
000000f0: 69b0 093f d395 3f3e c3af 28bd 2d61 febe
00000100: ec03 3bbc b8b7 003f 0da5 123d 5930 003f
00000110: 4ae0 133f 228a f4be 169f 643e ebf9 b43e
00000120: 8a38 1bbc 8f1d 02bf e6f4 4e3f cfa5 36bf
00000130: a6f9 a1be 5693 853e d0bb 7c3e 7112 f1be
00000140: 9641 193e 3404 85bd f980 5a3e b6a2 93be
00000150: 0b2d 8fbe 35c3 f1bd df39 52bc b638 2cbd
00000160: c546 20be cca3 1cbe 7549 36be daf5 e03e
00000170: 7996 033f e762 e83e b601 613e ecd4 0bbd
00000180: 8aef 03bf 2bb2 3c3d c51e b2be 0c6f 193f
00000190: 4c19 e93e fc50 673e 42c5 ddbe e06b 87be
000001a0: 999a 073f 9b66 193f 261d 383d 1b6d 023f
000001b0: 58f1 1a3e 8f52 4e39 bcac 3b3e 58e2 c0bd
000001c0: f3fe 71bd c80b 1ebe 267c a3bd 676d c6be
000001d0: 546e 093e 35fe a83d de0b e73d a758 b13e
000001e0: 114a 053f 7df0 133e 82a9 55bd 8f92 d13e
000001f0: 5c85 143e 3791 c2bc 67f6 243f 05bd f23d
00000200: 0058 54b8 00e8 2ebf 8003 08ba 3ff3 cdbf
00000210: cf1f 34be fab8 c43e 7986 6e3c f5b2 54bd
00000220: 7e73 2ebe 4972 52bf f192 e43e 2356 25bf
00000230: 495f 533c ff92 14bf d661 90be a311 293e
00000240: d753 ddbd 52ca f3bd 923e 053f f5ff ed3e
00000250: 8099 b3be ce85 5ebf 9319 603e 77a8 9cbd
00000260: 9ee0 913e 9c71 44bf 992c 8f3d 79a4 2e3e
00000270: 676b 863d af27 bbbe 8d88 633e 6e05 003f
00000280: fdd0 adbd e080 1bbd 4d88 06bf 68c4 19bc
00000290: 6737 ad3f 7f0e 01bf 26ca a0be b423 3dbe
000002a0: 8fcd 99be f3f0 0abc ae69 ad3d 9c73 29be
000002b0: 3fe6 03be 1a48 f6be 62ff 93be d59b eebd
000002c0: 4804 133e 34ee 1ebe 2824 a1bd 84b0 e03e
000002d0: 9541 fb3d 423d c23e 81e1 63be 0ab0 2d3d
000002e0: 9b70 8bbd d42b 80be e1bc fd3e ade3 99bd
000002f0: 54c6 dd3e ae38 d6bd 181c 023f a778 023e
00000300: 6e87 053f 97cc 383d 8927 403d 62a4 f3be
00000310: c03e 713a c176 c8bf 91cd 3b3d 0778 79be
00000320: b916 493f fc9e f6bc 4b23 023f be75 72bc
00000330: b10f 843e 3e3b 03be 95c3 4bbf 4014 c2bc
00000340: bb17 933d f69f 03be 3006 bdbd a9b5 ca3c
00000350: e217 1bbe 9d68 2ebf 2c96 0bbd 1dec 2cbe
00000360: 8cd6 80be a310 11be 7375 1bbe 8432 f03d
00000370: 12ab ebbd d6aa 8dbc d7aa cebd 2a1f 82bc
00000380: 99cb 2bbe bc02 fd3e bef5 aabd 7f70 2fbd
00000390: 26da 03bf ace8 2c3c f268 a8be 7e75 25be
000003a0: 4f85 153f 6f85 2c3e c860 c7be 8fcd 6cbd
000003b0: 39c4 e0be 8dbc b43e 213c 35bf fb27 6c3f
000003c0: 09cd 1c3f 3458 6bbe b0b5 01bf 8e82 bd3c
000003d0: a14c a13e 2ada 9c3e 9efd 60bd 7b13 263f
000003e0: 45ff 3d3d 20b6 fbbe b00c 0e3e da4f ed3e
000003f0: 6566 53be f497 393d 0286 c03e 7a1f 5d3e

hidden_layers.0.bias f4 [400]
-0.9971583 -0.41663083 -0.3881916 -0.56830406 -0.38676998 -0.40044963 -0.37019172 -0.57399327
-0.7088066 -0.6770707 -0.14470248 -0.6242824 -0.28521135 -0.42669854 -0.8195484 -0.4806478
-0.4624116 -0.24566308 -0.49876678 -0.23675908 -0.13589719 -0.6678368 -0.6194893 -0.4389678
0.10889821 -0.60689723 -0.4040127 -0.23604861 -0.38378957 -0.44191384 -0.4989382 -0.62257195
-0.37507492 -0.32872695 -0.20589735 -0.19734436 -0.42921948 -0.2538077 -0.25374177 -0.16636355
-0.5834592 -0.7340122 -0.22687192 -0.60433847 -0.27273843 -0.69978535 -0.7622492 -0.5943571
-0.5171123 -0.59687734 -0.57368976 -0.7800617 -0.5360867 -0.13757671 -0.0034502356 -0.5072368
-0.5038535 -0.57597196 0.05001834 -0.5660538 -0.41629764 -0.43390045 -0.33729413 -0.4571142
-0.636834 -0.36511484 -0.37755364 -0.52576387 -0.32964537 -0.51003796 -0.63182724 -0.2702045
-0.11149203 -0.8246948 -0.4191612 -0.25780863 0.04641661 -0.581959 -0.3826568 -0.4996363
-0.41299674 -0.43816856 -0.19993 -0.13644025 -0.5656315 -0.25318542 -0.43532193 -0.4869528
-0.27102447 -0.48579744 0.13287179 -0.42058846 -0.3997183 -0.5642711 -0.46182117 -0.593698
-0.325874 -0.45875952 -0.43770474 -0.37509573 -0.38953432 -0.57489455 -0.61323285 -0.48676795
-0.72527903 -0.41366816 -0.33919835 -0.5430571 -0.65802455 -0.53209364 -0.71795726 -0.4369878
-0.137687 -0.48856473 -0.50927746 -0.7576495 -0.033448726 -0.50040483 -0.3022493 -0.59855825
-0.37104595 -0.66580576 -0.4701818 -0.54621285 -0.6318077 -0.37392548 -0.5727925 -0.58182406
-0.4949451 -0.31716496 -0.53849053 -0.48304668 -0.54610854 -0.73004127 -0.490404 -0.42260125
-0.41706172 -0.3072743 -0.4588739 -0.5826942 -0.6425762 -0.5377901 -0.61779356 -0.56891197
-0.7221956 -0.19291797 -0.18069339 -0.4724832 -0.5966593 -0.19576126 -0.3926994 0.16861726
-0.6230517 -0.65348935 -0.1774727 -0.55610603 -0.5972048 -0.56401736 -0.59843946 -0.015132103
-0.45163947 -0.53574944 -0.57592744 -0.2925178 -0.51045406 -0.5881209 -0.69978946 -0.4988497
-0.43389234 -0.46926144 0.12157372 -0.48736188 -0.7104218 -0.60314876 -0.65883905 -0.37750313
-0.30186844 -0.31602317 -0.14327815 -0.27515852 -0.34589165 -0.64788675 -0.40963998 -0.37225133
-0.58594817 -0.41092902 -0.65862304 -0.41232723 -0.6767103 -0.056021415 -0.52629304 0.0608388
-0.25129458 -0.61922663 -0.1867405 -0.095923 -0.72742367 -0.025845533 -0.21033214 -0.36840245
-0.32070833 -0.55824035 -0.22679444 -0.3924186 -0.41703758 -0.4587289 -0.1712363 -0.40681535
-0.63840324 -0.6837652 -0.30793053 -0.48165676 -0.26846147 -0.5229127 -0.36621517 -0.44089234
-0.6994535 -0.22782622 -0.6836053 -0.7185956 -0.48758915 -0.40302843 -0.26097694 -0.41371197
-0.7479542 -0.45841676 -0.62067896 -0.24858683 -0.5887312 -0.64871794 -0.1751953 -0.50264907
-0.3895025 -0.22081436 -0.27869615 -0.5184607 -0.29245928 -0.32669443 -0.0004864258 -0.43898126
-0.23091605 -0.7677099 -0.5735467 -0.6325761 -0.272229 -0.20616013 -0.4699085 -0.16405366
-0.4698762 -0.38217604 -0.26608154 -0.7435149 -0.48402843 -0.6054424 -0.5154739 -0.2863184
00000000: c445 7fbf a350 d5be 0dc1 c6be 607c 11bf
00000010: b706 c6be bc07 cdbe c589 bdbe 39f1 12bf
00000020: 5974 35bf 8154 2dbf e32c 14be f9d0 1fbf
00000030: 3907 92be 3b78 dabe edcd 51bf 7817 f6be
00000040: 37c1 ecbe 1a8f 7bbe 5c5e ffbe f970 72be
00000050: a228 0bbe 5af7 2abf da96 1ebf 63c0 e0be
00000060: 0606 df3d 9e5d 1bbf c1da cebe bab6 71be
00000070: 1180 c4be 8842 e2be d474 ffbe e060 1fbf
00000080: d209 c0be e64e a8be c1d6 52be a414 4abe
00000090: a8c2 dbbe 15f3 81be 71ea 81be 355b 2abe
000000a0: 955d 15bf 39e8 3bbf 1d51 68be edb5 1abf
000000b0: 5fa4 8bbe 2225 33bf c322 43bf c927 18bf
000000c0: 7961 04bf f4cc 18bf 55dd 12bf 20b2 47bf
000000d0: fa3c 09bf e9e0 0cbe 591d 62bb 45da 01bf
000000e0: 8bfc 00bf e672 13bf 08e0 4c3d e7e8 10bf
000000f0: f724 d5be 3328 debe d1b1 acbe df0a eabe
00000100: 8e07 23bf 55f0 babe b64e c1be 7698 06bf
00000110: 47c7 a8be d991 02bf 6ebf 21bf 3f58 8abe
00000120: ef55 e4bd 331f 53bf 4c9c d6be 7eff 83be
00000130: 581f 3e3d 44fb 14bf 98eb c3be 54d0 ffbe
00000140: 4f74 d3be a157 e0be 73ba 4cbe feb6 0bbe
00000150: 3acd 10bf 85a1 81be 84e2 debe e151 f9be
00000160: b8c3 8abe 71ba f8be 8b0f 083e 5f57 d7be
00000170: e1a7 ccbe 1274 10bf d373 ecbe 98fc 17bf
00000180: f5d8 a6be 87e2 eabe d61a e0be 8c0c c0be
00000190: 0b71 c7be 4a2c 13bf d4fc 1cbf a639 f9be
000001a0: e3ab 39bf 50cc d3be 68ab adbe ca05 0bbf
000001b0: 4c74 28bf 4a37 08bf 0ccc 37bf ddbc dfbe
000001c0: d2fd 0cbe 2825 fabe 0260 02bf 51f5 41bf
000001d0: 8801 09bd 881a 00bf 6cc0 9abe 1d3b 19bf
000001e0: bcf9 bdbe 3f72 2abf abbb f0be 9bd4 0bbf
000001f0: 26be 21bf 2973 bfbe 87a2 12bf 6cf2 14bf
00000200: 7269 fdbe 7263 a2be 84da 09bf e551 f7be
00000210: c5cd 0bbf fce3 3abf 3c16 fbbe 315f d8be
00000220: 1d89 d5be 0f53 9dbe 85f1 eabe 722b 15bf
00000230: e07f 24bf 9dac 09bf b827 1ebf 37a4 11bf
00000240: d0e1 38bf 4a8c 45be b007 39be 51e9 f1be
00000250: aabe 18bf a475 48be e50f c9be 01aa 2c3e
00000260: 5180 1fbf 144b 27bf 67bb 35be f75c 0ebf
00000270: 6ae2 18bf 7163 10bf 5433 19bf a4ec 77bc
00000280: 4a3d e7be e026 09bf fb6f 13bf e5c4 95be
00000290: 1ead 02bf 178f 16bf 6725 33bf 3a69 ffbe
000002a0: 2327 debe 0943 f0be a4fb f83d 7f87 f9be
000002b0: 34de 35bf f567 1abf ada9 28bf 1748 c1be
000002c0: 808e 9abe cacd a1be 82b7 12be 94e1 8cbe
000002d0: b618 b1be e8db 25bf 55bc d1be ba97 bebe
000002e0: b300 16bf 4a65 d2be 859b 28bf 8e1c d3be
000002f0: e33c 2dbf b676 65bd 24bb 06bf 1b32 793d
00000300: afa9 80be a385 1ebf e738 3fbe 4773 c4bd
00000310: 7038 3abf 03ba d3bc 4f61 57be 3f9f bcbe
00000320: e233 a4be d7e8 0ebf cd3c 68be 17eb c8be
00000330: f385 d5be 84de eabe 9258 2fbe 1a4a d0be
00000340: 656e 23bf 3c0b 2fbf 12a9 9dbe b79b f6be
00000350: c873 89be 9bdd 05bf 8e80 bbbe a4bc e1be
00000360: 620f 33bf 474b 69be c200 2fbf e2f5 37bf
00000370: 49a5 f9be be59 cebe c59e 85be 0ed2 d3be
00000380: ed79 3fbf 9ab5 eabe d1e4 1ebf 8c8d 7ebe
00000390: 17b7 16bf 6112 26bf 6666 33be 9cad 00bf
000003a0: df6c c7be 291d 62be 43b1 8ebe d7b9 04bf
000003b0: 39bd 95be 7e44 a7be f706 ffb9 27c2 e0be
000003c0: 4275 6cbe a388 44bf f5d3 12bf 82f0 21bf
000003d0: 9961 8bbe a41b 53be d997 f0be affd 27be
000003e0: 9d93 f0be 94ac c3be d73b 88be fe56 3ebf
000003f0: 93d2 f7be 46fe 1abf 19f6 03bf 5398 92be

hidden_layers.1.weight f4 [300, 400]
0.458951 0.5270783 0.36959675 -0.037078746 0.19913282 -0.18700613 0.24604313 -0.15075725
0.39159214 -0.37001112 -0.33880538 0.1295121 -0.62699145 -0.19453782 0.6200962 0.3429051
-0.040442184 -0.66251403 -0.26030698 0.08198517 0.36107424 -0.27205908 -0.40295306 0.14418809
0.324372 -0.04442948 -0.19174625 -0.1893799 -0.1331093 0.23189741 -0.0060780467 -0.037698906
-0.18333684 0.4651931 0.09869915 0.31838575 0.13767873 0.066529885 0.044203468 -0.28858137
-0.123790294 -0.27650133 -0.5237214 -0.14168236 0.64924985 0.25645489 -0.69440675 -0.67565817
-0.42776945 0.24389544 -0.42643884 0.38800052 -0.5681196 -0.068084635 -0.8245684 -0.24935122
-0.40786934 0.17239006 -0.7100113 -0.10633799 0.08752144 -0.36136508 -0.2589523 0.33271512
0.25929832 -0.12031433 0.3246543 0.05709549 -0.20802152 -0.5852981 -0.37202084 -0.51487106
-0.5113501 0.06815723 0.191958 -0.06535386 -0.14572133 -0.12205317 0.43821067 -0.2508513
0.24066299 -0.7619977 -0.29638213 -0.19504432 -0.3594088 -0.4430111 -0.8261855 -0.41370592
-0.2805124 -0.73955715 -0.8892336 0.15584779 0.29538324 0.0735208 -0.77187103 0.16456768
-0.43313745 -0.026768725 0.2154348 -0.03082056 -0.1488816 -0.2972495 -0.012043182 0.10596919
-0.02207112 -0.24599881 -0.43825263 0.08628429 -0.38680995 0.30478942 -0.65499717 -0.8462643
-0.85423744 0.43995044 -0.16055593 0.061116185 0.18051268 0.5728218 0.2807494 0.3385061
0.007098596 -0.14409955 -0.2593226 -0.2517498 0.1379753 -0.08427218 -0.8131282 -0.42014807
0.26598153 0.15287098 -0.42563748 -0.19949391 0.25752103 -0.019082015 0.71849334 -0.4611185
0.07922703 0.20701164 -0.024795352 -0.05351683 -0.6177717 0.2379026 -0.03837962 -0.53944063
0.504474 -0.22324522 -0.3678049 0.07539859 -0.26909435 -0.7032812 0.026826827 -0.7841099
-0.06649249 0.59871626 -0.17009792 0.23366195 -0.043662548 0.6411063 0.42027092 -0.7291214
-0.13240267 0.30363998 0.46554017 -0.37787572 -0.1262816 0.5883988 0.30685377 0.059384048
-0.25791633 0.37665468 -0.3225049 -0.5919891 0.6130477 0.09500738 -0.11290379 -0.6428758
-0.19973312 -0.42010102 -0.64429367 -0.43678793 -1.0882964 0.5178524 -0.37993976 -0.8908113
-0.31858143 -0.29905206 -0.241259 0.012179346 -0.6135082 -0.32134753 -0.61534417 0.122067176
-0.12389407 0.13715772 -0.33311063 -0.46948445 0.9598004 0.26638943 -0.13981412 -0.32827145
-0.1027653 0.42757773 0.3198079 0.10893461 -0.5695424 0.29938784 0.15387985 -0.21821551
0.30427325 -0.09391398 -0.43929234 -0.42207155 0.032655664 -0.10546171 -0.51849693 0.10145009
0.06768879 -0.3068332 0.49983466 -0.29569668 -0.033196036 -0.42459148 -1.320561 -0.90718806
0.4103572 -0.3764926 0.08168042 0.15623796 0.146778 0.023185005 -0.046451878 -0.36174652
-0.021208836 -0.46223533 0.0037408255 0.36217523 -0.8101259 -0.48482755 0.19874139 -0.053183056
0.13238497 0.20640811 -0.4476619 0.3306143 -0.30898517 0.092433654 -0.209366 -0.7024365
-0.19787125 0.28838614 0.07598297 0.19877207 -0.18310988 -0.4975107 -0.08214564 0.28292623
00000000: a0fb ea3e 9aee 063f c93b bd3e e2df 17bd
00000010: 79e9 4b3e 897e 3fbe bbf2 7b3e 1c60 1abe
00000020: c47e c83e 1972 bdbe e677 adbe d29e 043e
00000030: 8382 20bf ec34 47be a0be 1e3f 4291 af3e
00000040: b4a6 25bd 859a 29bf f546 85be d7e7 a73d
00000050: b9de b83e 544b 8bbe dd4f cebe 0ba6 133e
00000060: 1614 a63e b0fb 35bd 2159 44be ceec 41be
00000070: ce4d 08be 8476 6d3e 5a2a c7bb 2b6a 1abd
00000080: a7bc 3bbe ca2d ee3e c822 ca3d 7503 a33e
00000090: a7fb 0c3e d240 883d b20e 353d f0c0 93be
000000a0: c485 fdbd 9591 8dbe 9b12 06bf 2e15 11be
000000b0: 3d35 263f 0e4e 833e a4c4 31bf eff7 2cbf
000000c0: 9904 dbbe babf 793e 3156 dabe 01a8 c63e
000000d0: 4970 11bf f56f 8bbd ea16 53bf ed55 7fbe
000000e0: 40d4 d0be 0587 303e 4dc3 35bf bbc7 d9bd
000000f0: 713e b33d d804 b9be 6595 84be a359 aa3e
00000100: c0c2 843e 5c67 f6bd 1739 a63e f6dc 693d
00000110: 9803 55be 19d6 15bf 8479 bebe 97ce 03bf
00000120: d7e7 02bf 0596 8b3d a390 443e 3fd8 85bd
00000130: f937 15be 03f7 f9bd 265d e03e 956f 80be
00000140: 5c70 763e 4812 43bf 66bf 97be b3b9 47be
00000150: 6e04 b8be 5ad2 e2be e580 53bf 43d1 d3be
00000160: 529f 8fbe 9e53 3dbf d0a4 63bf 9096 1f3e
00000170: 793c 973e 1392 963d 5799 45bf 6e84 283e
00000180: 31c4 ddbe 164a dbbc f19a 5c3e 667b fcbc
00000190: 6b74 18be 1631 98be c450 45bc 6006 d93d
000001a0: 7ece b4bc 1de7 7bbe a662 e0be d1b5 b03d
000001b0: f40b c6be 5c0d 9c3e e5ad 27bf c7a4 58bf
000001c0: 4eaf 5abf 2f41 e13e c668 24be f754 7a3d
000001d0: 51d8 383e 73a4 123f 63be 8f3e ac50 ad3e
000001e0: 579b e83b d58e 13be efc5 84be 5ae5 80be
000001f0: 6649 0d3e e596 acbd 2b29 50bf a61d d7be
00000200: bb2e 883e 368a 1c3e 28ed d9be 2248 4cbe
00000210: ccd9 833e e351 9cbc 2eef 373f b917 ecbe
00000220: c841 a23d dcfa 533e 9f1f cbbc 7734 5bbd
00000230: 4926 1ebf bd9c 733e f333 1dbd c818 0abf
00000240: 3525 013f 659a 64be ed50 bcbe 936a 9a3d
00000250: bcc6 89be 3d0a 34bf efc3 db3c 6dbb 48bf
00000260: 372d 88bd 7845 193f 262e 2ebe 1445 6f3e
00000270: 80d7 32bd 8b1f 243f c02d d73e b3a7 3abf
00000280: 9194 07be b376 9b3e 485b ee3e ed78 c1be
00000290: f74f 01be 4ea1 163f f01b 9d3e b03c 733d
000002a0: 9c0d 84be e2d8 c03e 5d1f a5be 998c 17bf
000002b0: b2f0 1c3f 3b93 c23d 1a3a e7bd 8293 24bf
000002c0: d786 4cbe 7b17 d7be 6ef0 24bf aba2 dfbe
000002d0: 4c4d 8bbf fa91 043f 7787 c2be 360c 64bf
000002e0: 1b1d a3be 5a1d 99be 990c 77be e18b 473c
000002f0: e00e 1dbf aa87 a4be 3287 1dbf 5bfe f93d
00000300: 2dbc fdbd 1373 0c3e 7a8d aabe 4460 f0be
00000310: 7bb5 753f 3264 883e 6f2b 0fbe 3213 a8be
00000320: 9d76 d2bd 78eb da3e dcbd a33e 1c19 df3d
00000330: 88cd 11bf 5d49 993e ae92 1d3e e373 5fbe
00000340: b4c9 9b3e f955 c0bd edea e0be c319 d8be
00000350: f2c1 053d 4ffc d7bd 37bc 04bf 11c5 cf3d
00000360: 6ca0 8a3d 3e19 9dbe 54ea ff3e 8e65 97be
00000370: 91f8 07bd 0e64 d9be 2508 a9bf 7a3d 68bf
00000380: 571a d23e a3c3 c0be 1048 a73d d8fc 1f3e
00000390: f94c 163e 7bee bd3c 5344 3ebd d736 b9be
000003a0: 27be adbc 1caa ecbe a328 753b 086f b93e
000003b0: 6964 4fbf 513b f8be dd82 4b3e 7ad6 59bd
000003c0: ed8f 073e a65c 533e f133 e5be 4746 a93e
000003d0: 4e33 9ebe db4d bd3d 0a64 56be e1d2 33bf
000003e0: c39e 4abe 59a7 933e f69c 9b3d e88a 4b3e
000003f0: 2881 3bbe b9b9 febe f93b a8bd b5db 903e

hidden_layers.1.bias f4 [300]
0.07425534 -0.5495445 -0.21005243 -0.4634518 -0.60062104 -0.047853794 -0.21318312 -0.05317323
-0.07417432 -0.016967 -0.38317183 -0.105451085 0.09351764 -0.42432418 -0.66346836 -0.16895054
-0.07193799 -0.16741014 0.19711849 -0.2793663 0.05761796 -0.047572967 -0.025893565 -0.26026314
0.019346375 0.09947758 0.05687161 -0.096409075 0.19243667 0.42890018 -0.54011935 -0.3441831
-0.0756786 -0.58613664 -0.032887656 -0.10428144 -0.014697471 -0.52349424 -0.7808974 0.20522065
-0.14895982 0.31247383 -0.30001262 -0.041657843 -0.13018863 0.081956744 0.3229275 0.44711158
-0.08547232 -0.47213718 -0.3077637 -0.37713137 -0.18920557 -0.1838221 -0.14402579 -0.82907444
-0.27785316 0.12316201 -0.41961062 -0.23007162 -0.3517509 -0.2557688 -0.12016714 -0.37808257
-0.1488232 -0.13765676 -0.57094395 -0.19545048 0.054810964 0.016349366 0.09348521 -0.103308395
-0.28860742 0.049959637 -0.29435062 0.2991927 -0.32891443 -0.55603737 -0.09741125 -0.02273519
-0.13273583 -0.48008338 0.009876158 -0.5074323 -0.19922101 0.07619173 -0.35050145 0.29901013
-0.15235502 -0.16461855 -0.46302184 -0.3765339 -0.42159703 -0.003338263 -0.03722203 -0.12724498
-0.0018091056 -0.041658737 -0.42045534 -0.6257073 0.0028377243 0.09145613 -0.051873494 -0.14439711
0.14723535 0.12427642 -0.058456678 -0.122634105 -0.20923263 -0.13331817 0.14047097 -0.6278257
-0.5078863 -0.39124334 -0.5119028 0.19313721 -0.36277482 -0.48450616 0.10897739 -0.3244687
0.066288866 -0.22982259 -0.068694174 0.27528894 -0.19521025 -0.20602885 -0.33059818 -0.38013133
-0.381926 -0.14929162 -0.12117679 0.19363868 -0.29750296 -0.3894465 -0.14432162 -0.18702155
-0.5092729 -0.7936039 -0.004160208 -0.63482445 -0.22384942 -0.39410248 0.118340366 -0.39314887
-0.14727718 -0.0961214 -0.35201055 -0.29046395 0.10237459 0.083131954 -0.16218334 -0.13666606
-0.037939996 -0.22723186 -0.56607777 0.12923852 -0.25955066 0.014114314 -0.43066108 0.3331032
-0.26720533 -0.5020443 -0.02686859 -0.463381 0.20832838 0.28410748 -0.29405504 -0.059534322
0.2739353 -0.15415366 -0.049362205 -0.43876976 0.02456311 -0.10781168 -0.5551016 0.06872486
-0.26515794 -0.30155125 0.19670193 -0.38456976 -0.50298166 -0.47896585 0.09188434 0.04654674
-0.29905683 -0.018986817 -0.43618584 -0.2595581 -0.15271583 -0.27707183 -0.4992523 0.05037593
0.07831668 -0.42706847 -0.21385665 -0.20114553 0.12173587 -0.48197305 -0.21905479 -0.15997653
0.44251648 -0.1597963 -0.5796119 -0.049910445 -0.03488715 -0.55742836 -0.12023162 -0.39660034
0.08479609 -0.2872287 -0.08670974 -0.44738424 -0.5236321 0.43270233 -0.51082844 0.27027437
0.035180386 -0.05966068 0.28391203 -0.304643 -0.6423487 -0.25371584 0.13968027 -0.01191825
-0.43897966 0.011317315 0.37690878 -0.3335822 0.21784134 -0.18972926 -0.41173068 0.08506276
-0.03289677 -0.28363875 0.05106146 -0.18874227 -0.11778359 -0.38067603 -0.16361873 0.042173777
-0.15882082 -0.3989962 0.2879395 -0.6825919 -0.07732914 0.025604619 0.029534865 0.05787646
-0.49589983 -0.05957919 -0.18955092 -0.39776608 -0.27399322 0.06126124 0.11186991 -0.0747373
00000000: 2f13 983d f3ae 0cbf fc17 57be 8e49 edbe
00000010: 4dc2 19bf 5702 44bd ad4c 5abe 2ccc 59bd
00000020: b5e8 97bd 61fe 8abc 192f c4be bdf6 d7bd
00000030: 2d86 bf3d 0541 d9be 10d9 29bf 5f01 2dbe
00000040: 3a54 93bd 906d 2bbe 6ed9 493e 1a09 8fbe
00000050: cf00 6c3d dfdb 42bd be1e d4bc 3641 85be
00000060: 4a7c 9e3c e7ba cb3d 35f2 683d 1f72 c5bd
00000070: 1e0e 453e ce98 db3e 4345 0abf c438 b0be
00000080: 62fd 9abd 0d0d 16bf 35b5 06bd 8291 d5bd
00000090: a9cd 70bc b803 06bf e4e8 47bf 5d25 523e
000000a0: ec88 18be 92fc 9f3e 419b 99be 6aa1 2abd
000000b0: 2b50 05be f0d8 a73d c156 a53e cfeb e43e
000000c0: 1d0c afbd f7bb f1be 3493 9dbe 5d17 c1be
000000d0: 1bbf 41be dc3b 3cbe 7f7b 13be 393e 54bf
000000e0: c542 8ebe 5d3c fc3d 34d7 d6be e597 6bbe
000000f0: b218 b4be 21f4 82be 311a f6bd 0a94 c1be
00000100: 1c65 18be e5f5 0cbe 6229 12bf 2c24 48be
00000110: 7681 603d 1bef 853c 2c75 bf3d 5a93 d3bd
00000120: 5ac4 93be 7aa2 4c3d 20b5 96be c92f 993e
00000130: 7967 a8be 7758 0ebf 8d7f c7bd 263f babc
00000140: e7eb 07be 7dcd f5be 9ccf 213c 15e7 01bf
00000150: 9800 4cbe 690a 9c3d ed74 b3be db17 993e
00000160: f402 1cbe c491 28be 3311 edbe 0dc9 c0be
00000170: 91db d7be c2c6 5abb 2176 18bd 824c 02be
00000180: 831f edba 5aa2 2abd ec45 d7be 5b2e 20bf
00000190: 1df9 393b 5a4d bb3d 4d79 54bd d6dc 13be
000001a0: ddc4 163e a384 fe3d 4570 6fbd 9727 fbbd
000001b0: 1441 56be 8f84 08be 9fd7 0f3e 2fb9 20bf
000001c0: d604 02bf 0c51 c8be 100c 03bf c3c5 453e
000001d0: 9fbd b9be 3111 f8be 8a2f df3d c320 a6be
000001e0: 75c2 873d 9d56 6bbe 88af 8cbd acf2 8c3e
000001f0: 32e5 47be 3af9 52be 2a44 a9be 93a0 c2be
00000200: ce8b c3be e7df 18be 892b f8bd 3849 463e
00000210: 4f52 98be 8865 c7be 0cc9 13be 9482 3fbe
00000220: b55f 02bf a029 4bbf 5b52 88bb db83 22bf
00000230: c838 65be cdc7 c9be 6f5c f23d cf4a c9be
00000240: d4cf 16be 4cdb c4bd ba3a b4be b1b7 94be
00000250: c5a9 d13d 1641 aa3d 6413 26be 30f2 0bbe
00000260: f866 1bbd 78af 68be 79ea 10bf 1a57 043e
00000270: d3e3 84be b93f 673c 9c7f dcbe 818c aa3e
00000280: 23cf 88be fa85 00bf 841b dcbc 4640 edbe
00000290: 0954 553e 8976 913e 628e 96be 43da 73bd
000002a0: 3f41 8c3e 75da 1dbe 0630 4abd 6ea6 e0be
000002b0: 9338 c93c 5fcc dcbd 231b 0ebf 9fbf 8c3d
000002c0: c8c2 87be ed64 9abe 3b6c 493e 54e6 c4be
000002d0: 68c3 00bf 033b f5be db2d bc3d cba7 3e3d
000002e0: fa1d 99be 3e8a 9bbc c053 dfbe cde4 84be
000002f0: 8a61 1cbe 5cdc 8dbe ff9d ffbe fe56 4e3d
00000300: 7f64 a03d b8a8 dabe 3dfd 5abe 18f9 4dbe
00000310: a850 f93d 2cc5 f6be e64f 60be e3d0 23be
00000320: 8591 e23e a4a1 23be 7261 14bf e56e 4cbd
00000330: d4e5 0ebd a0b3 0ebf ff3b f6bd 330f cbbe
00000340: 93a9 ad3d a40f 93be e094 b1bd 8c0f e5be
00000350: c10c 06bf 298b dd3e a7c5 02bf 6761 8a3e
00000360: 4f19 103d c25e 74bd eb5c 913e 2bfa 9bbe
00000370: f770 24bf 0be7 81be 5808 0f3e c344 43bc
00000380: f1c1 e0be 426c 393c 30fa c03e 49cb aabe
00000390: cd11 5f3e 6348 42be 5dce d2be 6235 ae3d
000003a0: c3be 06bd 1939 91be d225 513d a745 41be
000003b0: 8638 f1bd f8e7 c2be ab8b 27be 69be 2c3d
000003c0: eda1 22be 3b49 ccbe ce6c 933e 58be 2ebf
000003d0: bd5e 9ebd c7c0 d13c 1af3 f13c de0f 6d3d
000003e0: 95e6 fdbe 4f09 74bd a319 42be ffa7 cbbe
000003f0: d748 8cbe 11ed 7a3d 0d1c e53d df0f 99bd

output_layer.weight f4 [4, 300]
-0.12250157 -0.1874143 0.017340662 0.060503613 0.16463552 0.079363585 -0.1811751 0.9457069
0.031644702 -0.11091916 -0.017609052 0.10892689 -0.19070354 -0.16735911 -0.019977462 -0.26503697
-0.18631531 -0.24028103 -0.43773758 0.09921515 0.20593955 0.018824356 -0.24834457 -0.3552151
-0.25077853 -0.8202231 0.07391154 0.083362944 -0.03932071 -0.15730539 -0.024315167 0.41267806
0.4044142 0.10639288 0.28683856 0.03690147 0.41549683 -0.35296682 0.22497785 0.22552466
-0.06799724 -0.08772504 -0.046097502 0.08713546 0.31464365 -0.20821676 1.1581718 -0.013134401
0.145256 -0.16913167 -0.2645248 -0.084628835 -0.054338366 0.13505106 -0.27947557 0.11472493
-0.1252984 -0.06305382 -0.002819456 0.030450644 -0.046597343 -0.11919155 -0.39103666 0.24704333
-0.0943483 -0.3833946 0.28565356 0.065583855 0.12996419 0.44867578 0.07921273 -0.032777935
0.008216586 -0.022470064 0.06585556 0.028673248 0.23448138 -0.0654784 0.16536827 0.0901023
-0.18569136 0.11565 -0.38737014 -0.25265986 -0.26963982 0.008229356 0.47774386 0.053592134
0.046197705 0.8896169 -0.19670063 0.06162778 -0.113078184 0.22013982 -0.013752319 -0.06445627
0.07841661 0.07732329 -0.030375898 0.029629549 0.16683866 -0.07432296 0.27010486 0.75084263
-0.20430726 -0.08870714 0.3993629 -0.17897494 0.03430062 0.57505435 0.27128586 0.4740755
0.16311313 -0.15738623 0.13899301 0.008228549 -0.4517412 0.5924195 0.025762925 -0.003420245
-0.0046883053 -0.14394787 -0.126064 0.106982045 0.0092710005 0.16490145 0.020372292 0.07079487
-0.21633613 0.15123554 0.073218584 -0.06680494 0.1369201 -0.31004107 -0.10674579 0.12940532
0.3258822 -0.58637583 -0.8687289 -0.07899715 -0.0140101025 0.26097444 0.12482759 0.21160589
0.2534582 0.5492268 0.31529027 0.20468158 -0.25619343 -0.5852265 -0.2679811 -0.2887196
-0.035458993 -0.047990523 -0.07222016 -0.22405203 0.0017827901 0.056629054 -0.18135257 0.10264372
-0.31769902 -0.029888108 0.63332695 0.048308954 -0.18364394 -0.2090791 -0.78845155 0.06477968
-0.2350133 -0.3298625 0.08543323 0.2203415 -0.114389695 -0.22099552 -0.15958221 0.2581444
0.24319595 -0.10933466 -0.2713255 -0.13810149 0.031786248 0.19267009 -0.40011394 -0.10848737
-0.38988066 0.1846209 0.006852321 -0.10295915 0.16614126 -0.0428617 -0.052790206 0.17829363
0.65150076 -0.030497534 0.090225115 -0.010804648 0.19344915 0.1673526 -0.20041643 1.0340682
0.15027681 -0.0057743895 -0.5014511 -0.09826872 -0.17882934 0.15511014 -0.21864913 -0.04544551
0.5054636 0.07962658 0.31397584 -0.39548331 0.18217777 -0.20561013 -0.12621517 -0.03772046
0.20765074 0.5618358 -0.03413731 0.22878547 -0.21154451 0.5158747 0.5711312 -0.1024635
-0.050339654 0.3326392 0.36864236 0.1543476 -0.028464627 -0.24031752 0.12962644 -0.06778269
-0.46346778 -0.16405721 0.04569596 -0.0798092 -0.123453505 0.24657626 -0.0015600036 -0.19739686
0.016502637 -0.15546156 -0.018805193 0.20301022 -0.029776154 -0.012911242 -0.047880955 0.35351405
-0.04962372 0.1480321 0.013405856 0.23847921 0.6488567 -0.007965104 0.14374614 -0.15985489
00000000: 1ae2 fabd 89e9 3fbe 010e 8e3c a3d2 773d
00000010: 3796 283e 6089 a23d f785 39be d919 723f
00000020: e09d 013d 9629 e3bd dc40 90bc 1015 df3d
00000030: ca47 43be 3060 2bbe c6a7 a3bc edb2 87be
00000040: 71c9 3ebe 3b0c 76be 241f e0be 5031 cb3d
00000050: d1e1 523e 8935 9a3c 0a4e 7ebe c1de b5be
00000060: 0b66 80be 24fa 51bf ef5e 973d 31ba aa3d
00000070: c10e 21bd aa14 21be 9a30 c7bc 8a4a d33e
00000080: 610f cf3e 83e4 d93d 81dc 923e ff25 173d
00000090: 00bc d43e 11b8 b4be 9860 663e f0ef 663e
000000a0: 2342 8bbd 30a9 b3bd bcd0 3cbd 1374 b23d
000000b0: f918 a13e c636 55be f93e 943f ac31 57bc
000000c0: fdbd 143e da30 2dbe cb6f 87be e251 adbd
000000d0: e891 5ebd d34a 0a3e 6c17 8fbe e7f4 ea3d
000000e0: 394e 00be 5c22 81bd 9fc6 38bb a173 f93c
000000f0: dbdc 3ebd b31a f4bd f535 c8be edf8 7c3e
00000100: ae39 c1bd 4c4c c4be 2f41 923e d450 863d
00000110: 5515 053e d5b8 e53e 493a a23d 2842 06bd
00000120: dc9e 063c 2413 b8bc 48df 863d 29e4 ea3c
00000130: e31b 703e 8a19 86bd 4d56 293e 8e87 b83d
00000140: e025 3ebe e8d9 ec3d 6155 c6be a25c 81be
00000150: 3b0e 8abe 6cd4 063c d89a f43e 6d83 5b3d
00000160: ce39 3d3d efbd 633f e46b 49be 696d 7c3d
00000170: 8995 e7bd 556c 613e 6851 61bc a601 84bd
00000180: e398 a03d ac5b 9e3d e0d6 f8bc abb9 f23c
00000190: c1d7 2a3e a336 98bd 2f4b 8a3e 3937 403f
000001a0: ec35 51be 17ac b5bd 4b79 cc3e 3545 37be
000001b0: cf7e 0c3d c336 133f fbe5 8a3e 06ba f23e
000001c0: 2107 273e db29 21be 2f54 0e3e 09d1 063c
000001d0: 9f4a e7be cea8 173f c50c d33c 3026 60bb
000001e0: 5ba0 99bb 1267 13be ec16 01be 6719 db3d
000001f0: 65e5 173c eddb 283e cbe3 a63c e7fc 903d
00000200: 3887 5dbe 7ddd 1a3e a0f3 953d 07d1 88bd
00000210: c834 0c3e b4bd 9ebe 899d dabd d482 043e
00000220: 08da a63e ba1c 16bf 0465 5ebf 42c9 a1bd
00000230: a18a 65bc 719e 853e 9ca5 ff3d 37af 583e
00000240: 46c5 813e 219a 0c3f ba6d a13e 0c98 513e
00000250: c92b 83be 67d1 15bf d234 89be 0ed3 93be
00000260: 733d 11bd b691 44bd 2ae8 93bd e56d 65be
00000270: 82ac e93a def3 673d 7db4 39be df36 d23d
00000280: 72a9 a2be e8d7 f4bc b721 223f 9cdf 453d
00000290: 280d 3cbe d518 56be f6d7 49bf 35ab 843d
000002a0: 54a7 70be bde3 a8be 9ef7 ae3d 34a1 613e
000002b0: 2545 eabd a64c 62be 8569 23be 812b 843e
000002c0: 5c08 793e daea dfbd 2deb 8abe 7a6a 0dbe
000002d0: 4c32 023d 4f4b 453e bcdb ccbe a02e debd
000002e0: 709e c7be 430d 3d3e 6f89 e03b 3fdc d2bd
000002f0: ef20 2a3e c08f 2fbd 8b3a 58bd 9b92 363e
00000300: c1c8 263f f7d5 f9bc f2c7 b83d fa05 31bc
00000310: 8917 463e 7b5e 2b3e f739 4dbe 595c 843f
00000320: 2ae2 193e 1737 bdbb 195f 00bf 1c41 c9bd
00000330: 0a1f 37be 31d5 1e3e 8fe5 5fbe 1225 3abd
00000340: 1066 013f 4313 a33d 71c1 a03e ca7c cabe
00000350: cf8c 3a3e 768b 52be 8d3e 01be c580 1abd
00000360: 65a2 543e 79d4 0f3f 90d3 0bbd bd46 6a3e
00000370: 209f 58be 5d10 043f a835 123f 62d8 d1bd
00000380: f430 4ebd af4f aa3e b1be bc3e 4c0d 1e3e
00000390: a62e e9bc cc15 76be cbbc 043e a7d1 8abd
000003a0: a64b edbe 9dfe 27be b02b 3b3d 0173 a3bd
000003b0: 31d5 fcbd 7d7e 7c3e 0979 ccba 6722 4abe
000003c0: 8a30 873c 5131 1fbe 590d 9abc e9e1 4f3e
000003d0: 1fed f3bc ad89 53bc d21e 44bd cbff b43e
000003e0: 3e42 4bbd ba95 173e 3ca4 5b3c e533 743e
000003f0: 791b 263f 1180 02bc 3032 133e 00b1 23be

output_layer.bias f4 [4]
0.11927572 0.03652844 -0.08392012 0.039488483
00000000: d446 f43d d89e 153d 50de abbd adbe 213d
