checkpoint_actor.pth (torch_old, 541598 bytes, 6 tensors)

hidden_layers.0.weight f4 [400, 33]
000000 a2 b1 5f 3e ce bb 05 be 89 1b 2d be 75 f3 21 bf
       0.21845105 -0.13059923 -0.16905035 -0.6326211
000010 77 67 49 3e 2a e8 23 bd e2 ff ac be 62 97 18 3e
       0.19668375 -0.04001633 -0.33788973 0.14901498
000020 ca 87 9c bd a3 4c ff bb 9c c4 38 be 7a b1 3d 3e
       -0.07643087 -0.007791118 -0.1804375 0.18524733
000030 12 84 1e 3d dc 62 d3 bd 85 93 3e 3f 1c 66 00 bd
       0.03870017 -0.1032159 0.74443847 -0.03134738
000040 f4 e4 cf 3e 36 db ef be 3c da 8b bf 4c 64 66 3d
       0.40604365 -0.46846932 -1.0925975 0.056247994
000050 81 f1 6c bc 42 3b a1 be 66 e7 f4 3d 5b 1b 06 3e
       -0.014461876 -0.31490523 0.11958198 0.13096373
000060 a2 bb a2 bc ec 64 13 be 29 e2 5c 3e 3b 0d e2 3e
       -0.01986486 -0.14393967 0.21570648 0.4415072
000070 21 69 cb be 99 58 12 3d 01 3a cd be 8e a5 92 3c
       -0.39728644 0.035729025 -0.40083316 0.017901208
000080 0a fc 22 40 6b 88 64 bf e5 cd 17 3f b6 94 e5 3e
       2.5466332 -0.8927066 0.59298545 0.4484002
000090 96 af ab bd 66 e8 05 bf c5 f5 83 3e 86 47 c9 3e
       -0.083831 -0.52307737 0.25773445 0.3931238
0000a0 9f 7c 33 3e 85 8b 7e be bf 79 b2 be 5b 22 10 3e
       0.17528008 -0.2485791 -0.3485851 0.14075606
0000b0 4a 60 b7 3d cc 34 94 3e a0 05 5e 3c 1d ab f5 be
       0.089539126 0.2894653 0.013551146 -0.47982112
0000c0 b4 bc 6e be 7a 8d 1f 3e a0 3c 83 3e c7 4f e0 3e
       -0.23314172 0.15581313 0.2563219 0.43810865
0000d0 5e c1 86 bd 3a e0 12 3e d5 2b a2 be c2 09 29 be
       -0.065798506 0.14343348 -0.31674066 -0.16507629
0000e0 01 63 0e 3e 93 8a 3a be 1b b7 67 bd 24 4c 26 3f
       0.13904954 -0.18216924 -0.056571107 0.6495993
0000f0 49 86 16 3f ec b5 16 3e cf ff 0c 3d 90 e3 0f bf
       0.5879865 0.14717835 0.034423646 -0.5620661
000100 a3 59 11 3d 09 4d 27 bf 6c b9 f5 bd c3 00 ff 3d
       0.035485875 -0.6535192 -0.11998257 0.12451317
000110 06 75 8e 3e d1 a8 75 bd b7 91 15 be 1f d6 40 bd
       0.27823657 -0.05997545 -0.14606367 -0.0470792
000120 2a 7b 80 3d 47 92 fd 3c b4 6b 1e 3e 0f 04 8a 3e
       0.06273492 0.03095354 0.15470773 0.2695622
000130 f3 25 b0 3d c0 a4 a0 be 2d 81 31 3d 6c ab d0 be
       0.08600988 -0.31375694 0.043336082 -0.40755785
000140 a2 bc 70 3f 72 4d 8b 3e 60 58 7d bd ba ea 03 3e
       0.9403783 0.27207524 -0.06185186 0.1288251
000150 4f 6c 2b be 07 b2 64 3b b7 38 11 3e 29 f8 bd be
       -0.16740535 0.0034896152 0.14181791 -0.37103394
000160 6c f7 9f 3d 64 83 e4 3d 7e 88 a1 3e ac 27 e3 be
       0.07810864 0.11157873 0.31549448 -0.44366205
000170 d7 37 97 3e 06 1e 21 3f b8 b4 a8 bc 67 6c a2 bc
       0.2953479 0.6293644 -0.020593986 -0.01982708
000180 f7 73 24 bf 7b 6a 2c bd 15 33 74 3f 9c 1b 1c be
       -0.6423945 -0.042093735 0.95390445 -0.15244907
000190 6b e4 e8 3e 89 a8 4a 3f 44 89 16 bf c2 39 d2 3d
       0.4548677 0.79163414 -0.588032 0.10264923
0001a0 2e c8 5e 3e b6 a6 01 3f 0e 42 c5 be d5 0d 22 bf
       0.2175605 0.50645006 -0.38526958 -0.63302356
0001b0 2f 57 c8 bd 77 2c e6 bd db 52 a7 3e 38 e2 dd 3e
       -0.09782254 -0.1123895 0.326804 0.43336654
0001c0 a3 bd af be 5d 34 6e bd f6 7e 92 3c 5d 17 10 3f
       -0.3432437 -0.058155406 0.017882805 0.5628565
0001d0 91 10 0e 3e 52 17 30 bf 6e a0 62 bd 73 1b 01 bd
       0.13873507 -0.68785584 -0.05532878 -0.03152032
0001e0 36 8a 13 3e ac e2 c7 3e 4f 1f c1 be 0d bf fc bc
       0.14408192 0.39040124 -0.377192 -0.030852819
0001f0 7b f4 c1 bd 96 69 6f 3d 8c 6d 33 3f f8 cf a3 be
       -0.09470459 0.058450304 0.7008903 -0.31994605
000200 8d 70 f8 bc 94 8e 34 bf 80 0d d6 3b d0 45 0d 3f
       -0.030327106 -0.70530057 0.006532371 0.5518465
000210 0a db df 3e f0 83 fc 3e 1f 82 30 bf da 55 a0 bd
       0.437218 0.4931941 -0.6894855 -0.07828875
000220 15 78 07 3f 96 d4 71 3e d9 87 61 3e cc 9a 6f be
       0.52917606 0.23616251 0.22024478 -0.23398894
000230 9c a4 bd be e7 43 ff be a7 d5 47 3e 01 ab 02 3f
       -0.3703965 -0.49856493 0.19515096 0.5104218
000240 b2 50 fb bd c7 95 1d bc 7d f1 f1 be 53 fc 46 3e
       -0.12271251 -0.009618229 -0.47254553 0.19432192
000250 d0 5a e9 3d d7 20 e7 bd da c1 f6 be e2 43 b9 be
       0.11394274 -0.112855606 -0.48194772 -0.36184603
000260 54 70 2a 3f f2 5c 04 3e 6c ee ca bb 1e d2 69 3d
       0.6657765 0.12926081 -0.006192973 0.05708515
000270 f7 ff 93 be 5d 92 8a be 02 9a a8 be 90 e0 c6 3e
       -0.28906223 -0.2706479 -0.3293 0.38843203
000280 ee 87 8f 3e a4 fa 4e 3c aa d8 a2 be b2 5f da 3c
       0.28033394 0.012633 -0.31805927 0.02665696
000290 6d 6a a6 3f dc 99 5a 3e 58 51 08 3e 86 52 66 bf
       1.3001229 0.21347755 0.1331228 -0.8996967
0002a0 40 1c 52 bf 78 14 8e be 3b 83 00 bf c5 c3 02 3f
       -0.82074356 -0.2774999 -0.5020024 0.5107997
0002b0 37 35 26 3e b5 75 6a 3f c1 c4 7b be a4 75 9f bd
       0.16231237 0.91585857 -0.24586774 -0.0778611
0002c0 2e e2 f2 3d b1 77 0c bf 1f 30 d1 3d 70 39 4c 3e
       0.118595466 -0.54870135 0.102142565 0.19943786
0002d0 84 52 a5 be 5d fa ed bd 81 c0 44 be 15 41 00 be
       -0.32289517 -0.11620019 -0.1921406 -0.12524827
0002e0 ae f5 49 bf eb 52 42 3d 90 09 c3 be dc 88 89 3e
       -0.788905 0.047442358 -0.38093233 0.26862228
0002f0 ca 8c 2a be f4 87 a1 bd 62 dd 4b bd 2d c0 1f 3d
       -0.1665527 -0.07887259 -0.049771674 0.039001632
000300 90 d5 5e 3f 3a f4 13 3e bf bc 35 bd 12 0e 5c bf
       0.8704462 0.14448634 -0.044369455 -0.8595897
000310 28 34 5a bc fc 92 34 bf cc f9 c4 3e c0 16 c3 3e
       -0.013318099 -0.7053678 0.3847183 0.38103294
000320 85 e7 12 bf a8 58 f7 3e a5 1f 63 3e ca 64 ed be
       -0.5738452 0.48309827 0.2218004 -0.46365958
000330 e2 a9 85 be 72 b5 a2 be a3 07 79 be 95 d6 42 bd
       -0.26106173 -0.31779057 -0.2431932 -0.047567923
000340 4b 5a dc bd 7a 20 71 be 87 7e e1 3c a4 38 bf be
       -0.107594095 -0.23547545 0.027526153 -0.373479
000350 c8 80 17 bf 78 51 0a 3f f9 75 fa 3d eb 05 a2 3d
       -0.5918088 0.5403056 0.12229533 0.07911285
000360 b5 90 af bc 4f 1c fa 3d 62 0f 72 3e 5a f6 3c 3e
       -0.021431306 0.12212431 0.2363868 0.1845335
000370 ba 2c 53 be 8f a2 6f bd b5 24 ae bc 65 b3 3b bd
       -0.2062253 -0.058504637 -0.021257738 -0.04582538
000380 72 ec aa 3d 3d d8 ce 3e 3d ae 3d be ca 5b b2 bc
       0.083458796 0.40399352 -0.18523498 -0.021772284
000390 40 4f c4 be 54 6e 46 3c 2b 68 80 3f d3 36 17 bd
       -0.38341713 0.012111265 1.003179 -0.03691752
0003a0 04 ff f9 3e 43 c9 69 bd d1 37 66 be 43 7c 30 be
       0.48827374 -0.057076704 -0.2248223 -0.17234902
0003b0 de cd 05 3d 74 9a b8 3e 27 38 db be 71 3e 40 3d
       0.032667033 0.36055338 -0.42816278 0.04693455
0003c0 24 c0 0a 3e b8 f4 38 3c d9 b2 89 be 44 11 1f bd
       0.13549858 0.011288814 -0.26894262 -0.038834825
0003d0 e6 a3 ce 3e 4c c3 5f 3e 4f 4e 20 3e bf 14 ea 3d
       0.4035942 0.21851844 0.15654872 0.11429738
0003e0 46 cd dc bd 03 1e 2e be 44 0e 87 be 64 e6 04 bf
       -0.1078134 -0.17003636 -0.2637807 -0.5191405
0003f0 59 51 53 bf 43 b7 1f 3e 06 69 a4 bc 5e a8 39 3d
       -0.82546 0.15597253 -0.02006961 0.045326583

hidden_layers.0.bias f4 [400]
000000 7f 8d b2 be 91 a1 e0 be 0c 1a 13 bf 68 41 1d bf
       -0.34873578 -0.43873265 -0.5746162 -0.61427927
000010 52 16 85 be 7f b1 4d bf 06 a2 89 be 7a 66 1e bf
       -0.25993592 -0.8034896 -0.26881427 -0.61875117
000020 3d 54 24 be c8 34 c8 3c 51 b0 5a bf 0e a1 b5 be
       -0.1604776 0.02443923 -0.8542529 -0.35474437
000030 a4 4c 3b bf d4 3a 0a bf f0 0a cc be 84 38 0a bf
       -0.7316382 -0.53996015 -0.39852095 -0.53992486
000040 e6 f3 c9 be 8a f9 e7 be 99 ec 18 bf 4e 00 41 bf
       -0.39443892 -0.4530757 -0.5973602 -0.7539109
000050 62 0a 32 bf ba f1 a6 bd 64 c1 d5 be 42 8a 11 bd
       -0.6954709 -0.081515744 -0.41749108 -0.035532244
000060 ff 77 b0 be c9 4e e7 be 6d 74 2e bf 3d e1 e9 be
       -0.3446655 -0.45177296 -0.681464 -0.45679656
000070 d1 5d 12 bf 5c 0f e1 be 3b 49 1d bf 9e 37 dc be
       -0.571744 -0.4395703 -0.61439866 -0.43011183
000080 56 52 96 be 5c 4f 14 bf 2b 0f 77 be 68 0f 21 bf
       -0.29359692 -0.5793359 -0.2412688 -0.62914133
000090 40 91 23 bf 89 1d 50 bf e9 de 09 bf 23 be b8 be
       -0.6389351 -0.8129507 -0.5385576 -0.36082563
0000a0 78 8c 03 bf cb b2 cc be 79 41 1f bf 4b 25 16 bf
       -0.51386213 -0.39980158 -0.6220928 -0.58650655
0000b0 19 33 0b bf 2b fd 8d be f9 2b 49 be 7a a0 3b bf
       -0.54374844 -0.27732214 -0.1964568 -0.7329174
0000c0 56 24 16 bf f0 59 3b bf a9 07 1e bf 1f ac 0d bf
       -0.58649194 -0.7318411 -0.6173044 -0.5534076
0000d0 29 84 18 bf 51 ed c2 be f1 da d7 be a4 f8 42 bf
       -0.5957666 -0.38071683 -0.42159227 -0.76160645
0000e0 58 51 3a bf f6 b9 63 bf 52 df 5b bf ee 96 de bd
       -0.7278037 -0.8895563 -0.85887635 -0.10868631
0000f0 67 80 8f be 0d 8e e9 be 68 c3 26 bf 24 e8 44 bf
       -0.2802765 -0.4561619 -0.65141916 -0.7691672
000100 42 45 63 bf 1c 36 25 bf 41 25 0a bf f3 bf ad be
       -0.88777554 -0.6453569 -0.53963095 -0.33935508
000110 c3 51 1a bf 3e 70 13 bf da 4e 20 bf 0c 03 8b bf
       -0.6028101 -0.57593143 -0.6262032 -1.0860305
000120 12 80 00 bf fa 44 47 bf 31 19 eb be 79 cd b0 be
       -0.5019542 -0.77839625 -0.45917657 -0.34531763
000130 60 53 c7 be 3a 58 9d be 04 c3 0f bf 39 67 6e be
       -0.38930798 -0.30731374 -0.56156945 -0.23281564
000140 86 e4 02 bf a0 dc 1c bf d8 34 41 be 98 29 38 bf
       -0.5112995 -0.6127415 -0.18867815 -0.7193847
000150 3c e9 aa be 98 ce 04 bf 72 9a 36 bf 50 f9 f4 be
       -0.3338107 -0.5187774 -0.71329415 -0.4784646
000160 8e af 4e bf 63 08 74 bf df 60 e9 be b9 eb 06 bf
       -0.80736625 -0.953253 -0.4558172 -0.52703434
000170 8f 0c f6 be d3 ca 79 bf 71 58 26 bf 6f 06 09 bf
       -0.48056456 -0.9757511 -0.649787 -0.5352544
000180 c9 2f 82 be 82 c1 53 be 97 3e fb be 53 f7 3d bf
       -0.25427082 -0.20679286 -0.4907119 -0.7420551
000190 9f 39 2b bf c0 44 f6 be 4e e2 7d be 66 d5 57 bf
       -0.668848 -0.48099327 -0.2479336 -0.84309995
0001a0 fd 68 25 bf f5 ba 4e bf 99 e9 82 bf cf f4 30 bf
       -0.64613324 -0.80754024 -1.0227538 -0.6912355
0001b0 59 33 a3 be 1c e0 0a bf b4 92 e9 be 0e 5b a5 be
       -0.31875113 -0.54248214 -0.45619738 -0.32296032
0001c0 0e 33 24 bf f9 9a 3c bf dc 75 cb bd 84 3f 23 bf
       -0.64140403 -0.7367397 -0.09934589 -0.6376879
0001d0 c9 c9 04 bf 71 0e 1e bf d6 dd 32 bf f0 96 bd bd
       -0.518704 -0.61740786 -0.69869745 -0.09257305
0001e0 1d 36 5a bf fc bc 0d bf 4c 35 1b bf 9d 74 35 bf
       -0.8523882 -0.5536649 -0.606282 -0.7088106
0001f0 f8 6a 0d bf 5e 9c 2e bf 40 56 7a be 79 17 82 be
       -0.55241346 -0.6820735 -0.24446964 -0.25408533
000200 78 b2 79 bf 45 98 75 be b0 52 2b bf fa 42 8a be
       -0.97537947 -0.23983867 -0.66923046 -0.27004224
000210 6b 65 28 bf 66 63 18 bf 11 47 57 bf 6b 0d 18 bf
       -0.6577975 -0.5952667 -0.84092814 -0.59395474
000220 80 fa 8a be 2c c4 1f bf 29 5e 81 be 17 a7 46 bf
       -0.2714424 -0.6240871 -0.2526715 -0.7759871
000230 f8 15 13 bf 58 5a 5d bf 90 00 31 bf a2 b1 8c 3e
       -0.57455397 -0.8646598 -0.69141483 0.27479273
000240 f1 cc 8b be ed ec 35 bf 6c e4 11 bf 4a 69 fa be
       -0.27304795 -0.71064645 -0.5698917 -0.48908454
000250 c1 5f 55 bf e7 4a ff be cc 4a 36 bf 90 74 17 bf
       -0.83349234 -0.49861833 -0.7120788 -0.59162235
000260 9a 47 85 be 03 64 04 bf 40 0d c1 be c1 39 88 be
       -0.2603119 -0.51715106 -0.3770542 -0.26606563
000270 61 31 fc be 00 16 0c bf 12 04 90 be bd 60 07 bf
       -0.49256423 -0.5472107 -0.28128105 -0.52881986
000280 d7 8a b2 be f5 63 2f bf 15 d8 8e be 1d 0e 05 bf
       -0.3487155 -0.685119 -0.27899233 -0.5197466
000290 2d 13 47 bf 55 3b 39 bf f6 bb ee be 83 42 23 bf
       -0.77763635 -0.7235616 -0.46627778 -0.63773364
0002a0 2d 44 57 bf ae 8f 39 bf db cb 09 3e 12 33 36 be
       -0.84088403 -0.7248486 0.13456671 -0.1779292
0002b0 14 36 56 bf b4 27 4b bf d4 50 4d bf 3c cc 23 bf
       -0.83676267 -0.7935746 -0.8020146 -0.6398351
0002c0 41 fd c9 be 4c ef b6 be 4a fd 71 be ee c3 0f bf
       -0.3945103 -0.35729444 -0.23631778 -0.5615834
0002d0 b2 65 b2 be d9 f6 a5 be 38 71 24 bf c3 f8 f7 be
       -0.34843212 -0.32414892 -0.6423526 -0.48431978
0002e0 62 95 9f be be 05 ac be 35 69 f0 be 2a 67 09 bf
       -0.31168658 -0.3359813 -0.46955267 -0.5367304
0002f0 a1 1e d7 be 90 d2 f5 be 8d 62 13 bf 2c 64 36 bf
       -0.42015556 -0.4801221 -0.5757225 -0.712466
000300 31 3b 46 bf 39 e9 45 bf bc 3a 17 3e 01 ca 69 be
       -0.7743407 -0.77308995 0.14768499 -0.22830965
000310 19 6e f4 be 66 30 e9 be d0 5d 07 bf b6 e1 b3 be
       -0.47740248 -0.45544738 -0.5287752 -0.3513314
000320 42 fa fa be 83 62 1c bf 62 de 41 be 88 a7 d1 be
       -0.49019057 -0.61087817 -0.18932489 -0.4094813
000330 91 5c 25 bf d9 71 53 bf af 75 95 be 90 88 d3 bd
       -0.6459437 -0.8259559 -0.29191348 -0.103287816
000340 04 3c 22 bf 39 46 38 bf 81 18 f4 be 91 0d 44 be
       -0.63372827 -0.7198215 -0.47674945 -0.191458
000350 d6 81 6e bf 49 ff 6e bf 7e 97 2a bf 25 4f 57 bf
       -0.93166864 -0.93358284 -0.6663741 -0.8410514
000360 1f 5b 23 bf 95 0b 3b bf 87 7b 38 bf 2b ad 3f bf
       -0.63810915 -0.7306455 -0.7206349 -0.7487361
000370 39 1b 2a bf 72 bf 86 be e9 b4 0f bf 5e 3d 1b bf
       -0.6644779 -0.26317936 -0.5613542 -0.60640514
000380 11 d9 a5 be fa 55 1b bf e7 11 c9 be 14 9d 37 bf
       -0.3239217 -0.60678065 -0.3927147 -0.7172406
000390 b6 03 67 bf 5d 8b 53 bf fa 3d 04 bf 33 57 39 be
       -0.9024004 -0.82634526 -0.5165707 -0.1809967
0003a0 a1 7b 6d bf e9 83 b3 be 2c b1 15 be 37 10 cd be
       -0.9276677 -0.35061577 -0.14618367 -0.40051433
0003b0 2f 8c 59 bf a5 b9 68 be e0 04 6b bd 28 5a 3c bf
       -0.8497953 -0.22727068 -0.057377696 -0.7357507
0003c0 f8 63 20 bf ec e0 07 bf 60 18 2e bf 90 eb 23 bf
       -0.6265254 -0.5307758 -0.68005943 -0.64031315
0003d0 0d fe 2c bf a4 66 34 bf da 16 31 bf b1 53 69 bf
       -0.6757515 -0.7046912 -0.69175494 -0.9114333
0003e0 ef 75 8b be c6 8e 6b bf f7 6b ea be 1d 82 15 bf
       -0.27238414 -0.9201473 -0.45785496 -0.5840166
0003f0 43 3a 47 bf fb 8a 6e bd 10 4f 2c bf 20 34 f7 be
       -0.77823275 -0.05823801 -0.6730814 -0.48281956

hidden_layers.1.weight f4 [300, 400]
000000 26 9f 97 3e 86 32 ca be 46 35 e0 be f7 8c b0 3d
       0.29613608 -0.3949167 -0.43790644 0.08620637
000010 eb be e0 3d e1 a2 ac be 13 48 75 be 33 b2 b3 be
       0.10973915 -0.33718017 -0.23953275 -0.35096893
000020 c3 f7 0d bf 9c 69 e5 3e 8f 80 53 3e 82 eb f3 3b
       -0.5545618 0.44807136 0.2065451 0.007443846
000030 7b ce 89 bd 40 63 0c bf 9b b0 a7 be da e5 5f be
       -0.06728836 -0.54838943 -0.32751927 -0.21865025
000040 3b cb 24 3e d3 71 e5 be 27 1a f4 3d d6 75 ab bd
       0.16093151 -0.44813403 0.11919051 -0.08372085
000050 0d 8b dc 3b 12 6b 83 bf 1c c0 70 be bd 53 f5 3d
       0.0067304433 -1.026705 -0.23510784 0.119788624
000060 52 90 94 3e 0b ba e7 3e 6f bb 05 3f ac 2c 74 3d
       0.29016358 0.45259127 0.52239126 0.059612915
000070 a6 f7 81 be e2 ad 16 bd 41 30 a0 3b c8 6a 95 be
       -0.25384253 -0.03678692 0.004888565 -0.2918303
000080 80 e0 43 3d f0 2b 57 39 7f bd 84 3e 9a 0a d5 bc
       0.04782152 0.00020520366 0.25925824 -0.026006032
000090 41 b2 2b be 6c 28 2b 3e 53 15 aa bd 31 d1 c2 3e
       -0.16767217 0.16714638 -0.083048485 0.38050225
0000a0 5b d8 7b 3e be 57 05 bf a4 fb 07 3e 1c 2d 89 bb
       0.24594252 -0.5208701 0.13279587 -0.0041862857
0000b0 2c 91 d0 be 86 7f ad be ac 8c 88 3e b6 6f 8c 3b
       -0.40735757 -0.33886355 0.26669824 0.004285778
0000c0 7d 72 1f be 3c cb af 3d a6 a9 b0 be f1 84 bb be
       -0.15571018 0.08583686 -0.3450443 -0.36624864
0000d0 a2 19 84 bc 5c d9 31 be 62 b6 d7 be 01 38 8d 3d
       -0.016125504 -0.17368072 -0.42131335 0.068954475
0000e0 be 7b 31 bf 05 ef 31 39 44 01 92 3e 14 6c 4a be
       -0.6932944 0.00016969077 0.2851659 -0.19767791
0000f0 46 86 00 be d7 7a 7c bd e4 ce 30 be e3 6b 87 be
       -0.12551221 -0.061640587 -0.17266423 -0.264495
000100 e5 f4 01 3f 43 bf db 3e 3e b5 fa 3d 64 75 09 3f
       0.50764304 0.4291936 0.122416005 0.5369475
000110 49 31 6d bf 04 bb 0b bf 43 e8 96 be e9 fe c3 3d
       -0.9265333 -0.5458224 -0.29474077 0.09570105
000120 93 8f 02 bf 7b 69 bc be 04 65 82 3d 4c fe 94 bd
       -0.51000327 -0.36799225 0.063669235 -0.07275066
000130 43 99 a0 be 02 6b d9 3d a4 f0 9f 3e 0a 36 ad be
       -0.3136693 0.10616113 0.31238282 -0.3383029
000140 7f 7e ae be fd 92 d9 be a0 f4 78 3e 60 96 33 3f
       -0.34080884 -0.42494956 0.24312067 0.7015133
000150 8e 76 e9 b9 98 f6 24 3f 66 b0 9d 3e bc 0a 12 bf
       -0.00044529553 0.6443877 0.30798644 -0.5704763
000160 26 70 4e 3d f6 cf 6c bd 68 06 69 3d 14 43 c8 3e
       0.05039992 -0.057815515 0.056890875 0.39113677
000170 f8 cb 9c 3e c6 31 23 bf ad 4b 37 be 87 04 24 bf
       0.30624366 -0.63747823 -0.17899962 -0.6406941
000180 5a cf 5f 3e b8 33 aa be b7 9f 8a 3c 23 e9 0d bf
       0.21856442 -0.33242583 0.016921861 -0.55433863
000190 3e 91 b1 3e dd 78 8a be 01 05 9f be 1f 2f e9 3e
       0.34681123 -0.27045336 -0.31058505 0.45543763
0001a0 1f ad 33 bf d5 9d 98 bd a0 c2 c4 be e0 de e9 bd
       -0.70186037 -0.07451979 -0.38429737 -0.11419463
0001b0 ea 93 96 be 37 42 44 be f8 e4 3e bf 64 c0 92 be
       -0.29409724 -0.19165884 -0.7456813 -0.28662407
0001c0 d2 4e ee be 44 4e f7 3e 98 29 29 bf 7e 2f c5 be
       -0.4654451 0.483019 -0.6607909 -0.38512796
0001d0 73 41 8c 3d 54 ae f0 3e 4c 5b 94 3d 92 cf 06 c0
       0.06848421 0.47008002 0.07243976 -2.106419
0001e0 19 ce f3 bd a7 2b 8d 3d 58 e0 99 be d5 1a bc bb
       -0.119045444 0.06893092 -0.30053973 -0.0057405033
0001f0 aa 0b cc be 20 82 87 bd a0 7c 28 bf 61 f2 22 3e
       -0.3985265 -0.06616616 -0.6581516 0.15912773
000200 47 47 ac 3d 71 fd 7a be 2c d1 bc be da 00 f6 3d
       0.084120326 -0.24510743 -0.36878335 0.12011881
000210 06 1c eb 3e 93 cd a2 be 57 a2 ee 3c 02 4b 00 3f
       0.45919818 -0.31797466 0.029130144 0.5011445
000220 88 5f d1 bd 84 0b b1 be 21 b1 82 be e6 b6 67 be
       -0.10223299 -0.34579098 -0.25525764 -0.22628364
000230 b0 a5 db bd 2c 47 bb 3e 29 62 e3 3e 6f 87 4c be
       -0.10724962 0.36577737 0.44410828 -0.19973539
000240 64 d8 9d be d7 b7 55 be 42 59 5f bd b6 c1 d6 be
       -0.30829155 -0.2087091 -0.054528482 -0.41944665
000250 2e 77 04 3e 1f d3 36 bf 36 3a 07 3e f2 77 d3 bd
       0.12936088 -0.71415895 0.132058 -0.10325612
000260 8f fc 4d bf 93 3b 85 bf 74 22 ff bd 46 9f 24 3f
       -0.804635 -1.0408806 -0.12457743 0.6430553
000270 54 ef 14 bd d7 3b bb be c5 f7 04 3d 5d d6 e9 be
       -0.036361054 -0.36569092 0.032462854 -0.4567136
000280 c2 ab 05 3f fe ce b6 bd db 01 0e 3f 79 8d 15 bf
       0.52215207 -0.089261994 0.5547158 -0.58418995
000290 37 f3 75 3b 85 f9 d8 3e ae 88 43 bc 42 a0 f4 3d
       0.0037529 0.42377868 -0.011934442 0.11944629
0002a0 af 47 17 be 6c f6 09 be 22 e7 8b 3e 76 9e a4 be
       -0.14773439 -0.13472909 0.27324778 -0.32152146
0002b0 b1 5b 96 be 26 24 01 3d 53 73 f7 bd a5 a7 0b 3e
       -0.2936683 0.031528614 -0.12082543 0.1363817
0002c0 00 9d 96 be 38 23 2c 3e aa 72 39 bf ed cf 80 bf
       -0.29416656 0.1681031 -0.7244059 -1.0063454
0002d0 be a1 38 be 06 af d1 be af 84 19 3e 06 e1 92 bf
       -0.1803045 -0.40953845 0.14992021 -1.1474922
0002e0 df 80 ac 3e 65 b2 76 3e ec 64 1a bd 9d 0e 62 bd
       0.3369207 0.2409149 -0.037693903 -0.055189718
0002f0 28 f0 93 bc 5c fa de bd 5c ac a2 be 70 c9 35 3e
       -0.018058851 -0.10887596 -0.31772125 0.17752624
000300 48 60 01 be 2c bb 0e be 2d 1b 9e 3d a0 98 28 bf
       -0.12634385 -0.13938588 0.07720027 -0.6585789
000310 37 3b 4f 3c fb 28 95 3e 1d 4c 1f be b8 d9 bb bd
       0.012648395 0.29132828 -0.15556379 -0.09172386
000320 16 88 b1 3d dc 47 83 3e d5 04 b6 be b3 69 d3 3e
       0.086685345 0.25640762 -0.35550562 0.4129158
000330 63 84 06 bf c8 13 4c 3e f3 53 5a bf f7 cd e7 be
       -0.52545756 0.19929421 -0.85284346 -0.45274326
000340 44 fd f3 be fd 5d 90 3c 63 e7 31 bf 81 9c 0a bf
       -0.47654164 0.017622942 -0.69493693 -0.54145056
000350 93 0f e9 be 5b f8 d3 bd 02 35 5e be 6e 1c ae bc
       -0.45519695 -0.103501044 -0.21699908 -0.02125379
000360 61 07 97 be a5 4d 1c bf 31 e1 a2 3e 62 e1 64 be
       -0.29497817 -0.61055976 0.31812432 -0.22351602
000370 0d de 70 bd 62 b9 a5 be 5f d3 84 bf ea 1d 55 3e
       -0.058805514 -0.32367998 -1.0377005 0.20812193
000380 8b cf 37 be a9 6b bd ba 1b 6f 70 3a 96 45 7a 3d
       -0.17950265 -0.0014451641 0.00091718294 0.06110152
000390 d5 e0 4b be ca ff 4b be 90 92 35 3d 37 62 2c bf
       -0.19909985 -0.19921795 0.044329226 -0.67337364
0003a0 3b f3 2f 3f 72 19 d3 be d4 1e 39 be a6 6c 01 be
       0.68730515 -0.4123035 -0.18078166 -0.12639102
0003b0 ae 7f dc 3e a4 01 c1 3d f1 23 0b 3f d3 c3 25 bf
       0.43066162 0.09424141 0.5435172 -0.6475193
0003c0 66 a5 02 be 01 87 df 3e 41 cb 45 3e d1 97 1f bf
       -0.12758407 0.43657687 0.19315816 -0.6234103
0003d0 f6 a4 96 be 16 f1 44 bf d1 62 df 3e db 3d 5d be
       -0.2942273 -0.7693037 0.43630078 -0.21605627
0003e0 f3 8b 0a bf 0b d4 03 be 38 e5 7b be f4 09 de be
       -0.54119796 -0.12873857 -0.24599159 -0.4336697
0003f0 e3 fb 71 bf 3d 8c ec 3e 30 f2 c7 bd 43 ff c7 be
       -0.94524974 0.46200743 -0.097629905 -0.39061937

hidden_layers.1.bias f4 [300]
000000 74 70 1f 3e 49 45 67 3d bb 6d 9a be 27 7d 5e 3e
       0.15570241 0.05646256 -0.30161843 0.2172743
000010 b4 ad 01 3e 37 f1 a1 3e 4a 7f d0 bd e2 9f 9a 3d
       0.12663919 0.31629345 -0.101805285 0.075500265
000020 7e e0 04 3e 4b 4c ba be 34 f6 52 be 34 82 68 3d
       0.12976262 -0.36386332 -0.20601732 0.056764796
000030 8a 53 68 be c1 f3 8c bc 1d 9c 8c 3c 1a 54 26 bf
       -0.22688118 -0.017206075 0.017164284 -0.6497208
000040 49 0c 18 be 16 ce b3 38 ae 75 99 3d d8 4e 93 be
       -0.14848436 8.5737716e-05 0.07493149 -0.2877109
000050 1b a5 30 bd e1 a6 dc be dc 58 8a 3d af 11 02 bf
       -0.043126207 -0.43096069 0.0675523 -0.50808233
000060 7d 50 ad be 59 fb 28 3d 15 cb 51 3e 47 4d 28 3e
       -0.3385047 0.04125533 0.20487626 0.16435729
000070 ac 9f f6 be 69 6e 54 3e 95 90 9f 3d 33 89 cc be
       -0.48168695 0.20745243 0.07791249 -0.39948425
000080 c5 5c 52 be 69 65 78 3d df 6d d2 bd 88 58 6a bd
       -0.20543201 0.060643587 -0.102748625 -0.057213336
000090 f5 2d 6d 3d e7 19 af be 97 8f 3a 3e 18 e2 1d 3e
       0.057905156 -0.3419945 0.18218838 0.15418279
0000a0 20 88 67 3d e9 68 b6 bd dd 3b 1b be a6 cc b3 bc
       0.056526303 -0.08906729 -0.15159555 -0.02194817
0000b0 3e bc c9 be c5 07 d9 be 8c 0f 01 bf 31 c0 a5 3d
       -0.3940143 -0.4238874 -0.5041435 0.08093298
0000c0 9d d5 97 be ad 90 ce be 62 6a 59 3d 07 82 99 bd
       -0.29655161 -0.40344754 0.05307997 -0.07495504
0000d0 32 4e 40 bc 6c 6a d2 bd 81 a7 61 3d 49 29 b1 3d
       -0.011737393 -0.102742046 0.055091385 0.08650453
0000e0 8d c7 bb be 33 9c 70 3e 01 1e 8f 3c 72 a0 45 3e
       -0.36675683 0.23497085 0.017470362 0.19299486
0000f0 48 1a d4 be fc 35 fa 3e 91 57 8e be 0b af a8 be
       -0.414263 0.48869312 -0.27801183 -0.32946047
000100 d8 33 e2 be 84 66 90 be 39 7a 0b bf 2d 5d bd be
       -0.4418018 -0.28203213 -0.5448337 -0.3698515
000110 b0 b6 6a 3e e8 94 22 3d 44 3b 17 3f 95 e0 fe bd
       0.22921252 0.03969279 0.5907481 -0.124451794
000120 9e 95 aa be 48 b6 81 3d 69 91 94 3d 09 1d b8 bd
       -0.33317274 0.063335955 0.07254297 -0.08989913
000130 d5 52 04 be 78 84 80 3d 34 64 eb be d5 1b 6b be
       -0.12922223 0.062752664 -0.45974886 -0.22959836
000140 c1 8a d2 bd d3 85 d3 be 41 fd 93 be 3b 4a 96 be
       -0.102803715 -0.41313037 -0.28904155 -0.29353508
000150 57 c4 e4 bd 2d aa 04 bd 62 50 8b 3a 28 53 b4 3e
       -0.11170261 -0.032388855 0.0010628814 0.35219693
000160 17 94 86 3d e4 ac de be ab e6 34 3d 1c 77 c3 be
       0.06571215 -0.4349128 0.044165295 -0.3817681
000170 f1 48 d2 be 01 89 92 bd b2 78 da bc ba ac 96 bd
       -0.41071275 -0.07155038 -0.02666888 -0.07357164
000180 b7 5e 55 be 8d 14 59 be 2a 0f 36 3e 0e 7f 59 bf
       -0.20836912 -0.21199246 0.17779222 -0.84959495
000190 50 70 a5 be d0 88 9f 3d de bb 44 3e 51 b6 15 3e
       -0.3231225 0.07789767 0.1921229 0.1462033
0001a0 3b 76 e6 bd 9f 7a 19 3d 25 c9 d6 be f6 77 fc bd
       -0.112530194 0.037470456 -0.41950336 -0.12327568
0001b0 e7 f9 4e 3e 00 c2 2e 3d 47 c9 3a 3d ed 94 51 bd
       0.20212518 0.04266548 0.04560211 -0.051167417
0001c0 1b 55 c1 ba 7b 70 3c 3e 12 a9 0f 3c 00 13 72 be
       -0.0014750095 0.18402283 0.008768337 -0.2364006
0001d0 4f a6 dc be 33 1b 10 bf 6a 13 54 3e fd 4b a4 3e
       -0.43095633 -0.562915 0.20710531 0.32089224
0001e0 23 78 c0 be fd 65 ec bc c6 81 97 bd f2 fc 27 be
       -0.37591657 -0.028857226 -0.07397799 -0.16405085
0001f0 d6 e1 4a 3d b8 fb f4 bd 25 0a 0d bf f2 0d 08 bd
       0.04953178 -0.11962074 -0.55093604 -0.033216424
000200 45 aa d8 be 6f 69 fe 3d f2 b0 00 3e 27 4c a4 bd
       -0.42317405 0.124224536 0.125675 -0.080223374
000210 1f e5 ae be 77 d5 f5 3c a7 d4 a3 bd b0 57 2e be
       -0.3415918 0.030009015 -0.079995446 -0.17025638
000220 e9 b1 85 be 36 7a 26 be 22 15 39 be d9 eb 4a be
       -0.26112297 -0.16257557 -0.18074468 -0.19816531
000230 0c d7 7d be 65 2d 47 be 27 01 48 3d 05 ca a4 bc
       -0.24789065 -0.1945091 0.048829224 -0.020115862
000240 ed 62 19 be 21 17 21 bd 6f 8d 19 bf 15 68 8e be
       -0.14979143 -0.039328698 -0.59981436 -0.27813783
000250 1d 48 5c bd 08 6e 05 bf 1e e8 8a bd 10 b1 42 3e
       -0.05377971 -0.5212102 -0.06782554 0.19012856
000260 56 60 9a be 1f 7e 4a be 91 d2 bc 3d 2d 17 9e bd
       -0.30151623 -0.19774674 0.0921985 -0.07719264
000270 05 f4 7e be c7 a6 1d 3e 38 37 1a 3e 92 b0 b2 3d
       -0.24897774 0.15395652 0.15060127 0.08725084
000280 f2 42 c7 3e f8 5f 52 be 1a 03 2e 3d 97 15 5c be
       0.38918263 -0.20544422 0.042483427 -0.21492611
000290 82 4e 0b be a1 91 8b 3d 64 47 48 bf 9d 73 5c 3d
       -0.13604167 0.06814886 -0.78233933 0.053821195
0002a0 20 38 19 3c b8 a1 37 be 58 c1 96 be 69 4f 31 be
       0.00935176 -0.17932785 -0.29444385 -0.17315449
0002b0 06 f3 7c be 9b 1e 0d bf c4 22 08 3e e4 46 ce bc
       -0.24702081 -0.55124825 0.13294512 -0.025180288
0002c0 5f 9f 85 3d bc ce 52 3d 64 ba 1a be dd 47 4a 39
       0.06524538 0.05146669 -0.15110165 0.00019290992
0002d0 e2 d7 65 3b bb 0c a9 bd 36 30 00 3d 6b 48 05 be
       0.0035071303 -0.08254381 0.031295978 -0.13015907
0002e0 aa e9 33 bf 46 8d 33 3e d2 20 21 bf 4e 6b b5 be
       -0.7027842 0.1753436 -0.62940705 -0.3543343
0002f0 cb 59 cd be 31 17 89 be c9 ca d1 be 44 de ec be
       -0.4010757 -0.26775506 -0.40975025 -0.46263325
000300 b7 30 24 be 29 1b 80 3d 8d 00 fa 3d 52 ea 06 bf
       -0.16034208 0.062551804 0.12207136 -0.52701294
000310 41 1c fc be c8 b5 30 be d0 35 91 be bc 0f cf be
       -0.49240306 -0.17256844 -0.28361368 -0.40441692
000320 7a 27 6f bd 53 77 8f be fe c1 04 be 1c 2f 22 3e
       -0.058387257 -0.28020725 -0.12964627 0.15838283
000330 b8 68 ab 3c 60 af 9f bd 21 30 8c 3d 02 f5 0d 3e
       0.020923957 -0.07797122 0.06845117 0.13862994
000340 ba dc 93 3d bc a1 2e be 3a fb 5d be b6 e3 01 bd
       0.072198346 -0.17053884 -0.21677867 -0.031711303
000350 ec d0 62 be 9c 8b 98 3e 96 b9 b3 be b6 53 1c bd
       -0.2215001 0.29794014 -0.35102528 -0.03816577
000360 93 a4 ec bc a2 8b 1e 3e b5 b8 8e bd b4 4e 42 3c
       -0.028887069 0.15482953 -0.06968824 0.011859585
000370 46 e5 ed bd 31 40 98 3d 3c c0 86 3e ab e7 f3 be
       -0.11615996 0.074341185 0.26318538 -0.47637686
000380 7b a9 93 bd fe 81 b1 be c1 f2 a2 bd 58 3e 8c 3c
       -0.0721006 -0.3466949 -0.07956458 0.017119572
000390 bc 21 32 be 8c f9 e9 bc 5f 6d 5f 3e 5e fa 6e 3d
       -0.17395681 -0.028561376 0.21819066 0.058344238
0003a0 10 bf 94 3e a1 98 a1 3d d3 16 00 be e7 76 d5 be
       0.2905202 0.0789044 -0.12508707 -0.41692278
0003b0 37 5d 31 bf 2a 95 66 be 66 6d 27 ba ed 1f 9d be
       -0.6928286 -0.22517839 -0.0006386846 -0.3068842
0003c0 8f b1 5a be 81 28 62 3d 1b 0e 93 bd 4f 27 d7 be
       -0.21356796 0.05521441 -0.07180425 -0.42022178
0003d0 9d ce d4 bd a2 ed 85 3d e8 1c 9a be be 87 fb be
       -0.10390971 0.065394655 -0.3010018 -0.49127
0003e0 2a 72 73 bd db e9 45 be 3b 16 80 3e 11 9f cb bd
       -0.059435047 -0.1932749 0.2501696 -0.09942449
0003f0 44 9c 49 3d 12 eb 78 3d 3a 22 58 be cd 33 b6 be
       0.049221292 0.060771056 -0.21106806 -0.35586396

output_layer.weight f4 [4, 300]
000000 bf b3 83 3d 3d 4c 3e 3d 18 78 66 be 5d 32 a9 3e
       0.06430768 0.046459425 -0.2250675 0.33046237
000010 d7 96 c6 3e 8e 65 57 be 14 99 99 be 08 4a 8f 3c
       0.38786957 -0.21034834 -0.29999602 0.017491356
000020 a9 00 d7 3c b2 d2 2f 3e 10 57 ad be 74 0d 9b 3b
       0.026245432 0.17170218 -0.33855486 0.0047318283
000030 60 11 a7 3e 42 59 77 bd 59 f1 40 bf fd c5 88 bd
       0.32630444 -0.060387857 -0.7536827 -0.06678388
000040 eb 1a b0 3c 6d 79 21 3d 14 88 3b bf 03 c7 7e be
       0.02149721 0.03942244 -0.73254514 -0.24880604
000050 48 4c 36 3e 5a 75 c7 be 82 ea 45 bd ac 61 f0 3d
       0.17802536 -0.3895672 -0.048319347 0.117373794
000060 17 2d 99 be 7c 3c 6a 3d c1 d0 be be 87 4e 80 3e
       -0.29917213 0.05718659 -0.37268642 0.25059912
000070 10 05 db 3e 01 12 5d be 90 bf 51 3a e3 8b fa 3d
       0.427773 -0.21588899 0.00080012623 0.122337125
000080 5b 5a 82 bc 4f 98 69 bd 0e 4a 31 3f ea 2f 80 be
       -0.015912225 -0.05703002 0.69253623 -0.25036556
000090 10 00 a7 bc 94 cc d8 3d cf 8b 0c bf 37 bc 51 be
       -0.020385772 0.10585895 -0.5490083 -0.20481955
0000a0 6a 22 15 3b d8 6b 62 bd f3 5f ca be bd ac 07 be
       0.0022756108 -0.05527863 -0.39526328 -0.13249488
0000b0 5b 9e 37 bf c0 2d c1 be a5 83 1b 3f 70 e6 56 3c
       -0.71726006 -0.37730217 0.6074775 0.013116464
0000c0 00 ec 2d be 0a 23 cc 3e 1e a7 3c ba d2 7c 71 be
       -0.16984558 0.39870483 -0.0007196533 -0.23582771
0000d0 51 7f ed 3d c6 db 1f 3f fd 8e 64 3c ba 66 45 be
       0.11596549 0.6244472 0.013950107 -0.19277468
0000e0 c6 60 91 3d 52 ba ca be 50 d6 ed bd 67 a7 3c 3e
       0.07098536 -0.39595276 -0.116131425 0.18423234
0000f0 53 75 3b be d4 bb 05 3d 45 6f c1 3d c8 ae 4b 3e
       -0.18306474 0.03264983 0.09445051 0.19890893
000100 ac 9d d7 bd c4 b8 2d bd f2 13 bf be 5f cd 53 be
       -0.105281204 -0.042412534 -0.37319905 -0.20683812
000110 b4 f1 32 be 9b 2a 96 bc b6 3e 95 bd e6 38 84 be
       -0.17475015 -0.018330863 -0.07287352 -0.2582466
000120 4b 43 d0 bd 73 3e c2 bb 06 86 a1 bc c3 2b 98 be
       -0.10169085 -0.0059278547 -0.019717228 -0.29720888
000130 27 76 88 3e 08 db 34 bc f5 25 30 3d 10 43 b2 3e
       0.26652643 -0.011038549 0.04300495 0.3481679
000140 b7 a2 4f be de ae 52 3e dd 54 2e be 4e fd ac bb
       -0.20276915 0.20574519 -0.1702456 -0.0052792197
000150 37 f5 38 3f db df 6f 3e 4d d4 45 be a2 36 b8 be
       0.7224917 0.23425238 -0.19319268 -0.35979182
000160 d5 15 2e 3d 85 fa 90 3c a9 d5 8f bd 1a e1 b5 bd
       0.04250129 0.017697582 -0.07023174 -0.08880825
000170 ae a4 a3 bd df 33 9f 3d 53 18 03 bf bd 44 cd bd
       -0.079903945 0.077735655 -0.5120899 -0.100228764
000180 94 e0 ba 3e f0 87 30 bd a8 2c 01 bf be 91 0f 3f
       0.36499465 -0.04309839 -0.50458765 0.5608176
000190 00 aa 46 3e c6 4d 92 be 92 f4 15 3f ad 7d 46 bf
       0.19400787 -0.2857496 0.5857631 -0.77535516
0001a0 21 20 9b 3e 14 48 70 3c ba 48 14 bf 3a e5 d2 3d
       0.3029795 0.014665622 -0.5792347 0.10297628
0001b0 a2 1d bc 3d a6 eb 01 be e6 69 3f 3e 9a 5e d3 bd
       0.091853395 -0.12687549 0.18692741 -0.10320778
0001c0 a2 f8 15 bd 06 cc 1f 3e a5 05 3e 3c 34 9c 64 be
       -0.036614068 0.15605173 0.011598025 -0.22325212
0001d0 38 91 69 be 91 10 42 be 6b 2a 3c 3b 00 da df 3d
       -0.22809303 -0.18951632 0.0028711807 0.10930252
0001e0 98 ac a5 bd a7 17 f0 3d fb d2 e9 be e7 46 67 3e
       -0.0808956 0.11723261 -0.45668778 0.22585641
0001f0 9e 74 54 bd 45 c1 f8 3c 85 0a ab be 48 5e 4c 3e
       -0.051869027 0.030365596 -0.33406463 0.1995784
000200 52 9e cb bd 35 3e 3f be 5d 9c 74 3d a5 89 2e be
       -0.099423066 -0.18676074 0.059719432 -0.17044695
000210 fa 09 0c 3f 9a 31 fd 3a d6 fd 75 be a6 97 28 be
       0.54702723 0.001931715 -0.24022612 -0.164641
000220 1a b4 27 3f df 3b d4 3e 2b 4f 3c 3e fe 06 e4 be
       0.6550919 0.41451928 0.18389575 -0.44536585
000230 7d 84 53 3e 75 dc 1a bd 2d da 22 bc 5c 62 a9 bd
       0.20656009 -0.0378079 -0.0099397125 -0.08270714
000240 b3 e8 3f 3e e5 65 af be be e2 15 3e 85 33 6e 3d
       0.18741111 -0.34257427 0.14637277 0.0581546
000250 61 47 f8 3d d5 de 41 be 10 82 b0 3d 4c c9 f9 be
       0.121229894 -0.1893266 0.086185575 -0.4878639
000260 a0 f5 92 be 4d 8b 3e 3e 59 5e b2 3d ca 99 60 be
       -0.28703022 0.18607827 0.08709402 -0.21933666
000270 60 c7 07 3f d1 0f cd 3d 59 1f 4e 3d 70 11 2a 3d
       0.530386 0.10012782 0.050322864 0.041520536
000280 38 50 03 bf d9 08 83 3e cb d8 16 be bd 0e 3a be
       -0.5129428 0.25592688 -0.14731137 -0.18169685
000290 3c 15 f0 3d 04 35 cb bb 64 43 a8 3e ff 1e 71 bd
       0.117228 -0.0062013883 0.32863915 -0.05886745
0002a0 24 52 eb 3c fa 11 82 bd 20 4a 1a 3f 11 6c 37 3d
       0.028725691 -0.06351085 0.60269356 0.044780795
0002b0 0c 2f 5c 3f c6 b5 13 3e 6a f4 6c bd 61 42 39 be
       0.8600929 0.1442481 -0.05785028 -0.18091728
0002c0 93 5b 34 3c 6a e6 b6 bd 17 29 8a be dc bf 9e 3c
       0.011008161 -0.08930667 -0.26984474 0.019378595
0002d0 97 8c 1c bf ab 40 89 3d 45 92 d6 be 00 c0 c8 3d
       -0.61152023 0.067017876 -0.4190847 0.09802246
0002e0 12 8f e7 be 03 32 14 3e 19 38 1e be d8 76 df 3e
       -0.4522634 0.14472203 -0.15451087 0.43645358
0002f0 a3 2e a6 3e 2f d1 29 3d 30 94 09 bd fb 7d 27 be
       0.32457456 0.04145926 -0.03358859 -0.16356651
000300 cb 28 1d bf af c4 75 3d 17 8f f9 bd c0 da e5 3c
       -0.6139037 0.060002025 -0.12185495 0.02805841
000310 59 b3 02 bf 5f ed e8 be d9 f6 85 be ad fc ad bd
       -0.5105491 -0.454936 -0.26164892 -0.0849546
000320 c4 ae 9f 3e 50 6f b9 be d1 0d f5 3d 66 d2 bd bd
       0.31188023 -0.36217737 0.11965526 -0.09268646
000330 4e a0 40 3d 13 63 20 be 00 0c d8 bb 10 48 00 3d
       0.04702788 -0.15662794 -0.0065932274 0.031318724
000340 e7 32 a7 3d df 82 3b 3e ab 70 bb bd 8f 20 80 3d
       0.08164006 0.18311642 -0.09152349 0.0625621
000350 52 99 30 3d 22 d2 19 3e 53 f2 3e be 13 0b af 3d
       0.043114968 0.15021566 -0.18647127 0.08547034
000360 5a 6c 13 3e e5 30 d3 bd ae 60 6f 3d eb 2d 23 bc
       0.14396802 -0.1031206 0.05844181 -0.009959678
000370 9a 42 0c 3d ba 22 b1 bc 3a b5 a9 bd fc 16 1a 3e
       0.034243204 -0.021623004 -0.08286519 0.1504783
000380 59 68 0c bf 66 f3 55 3e 0e 2f 38 3e c8 9a 31 bf
       -0.5484672 0.2089363 0.179867 -0.693768
000390 c8 55 18 be c6 59 ab 3e 06 8a 1c bf 4f 75 4c bd
       -0.14876473 0.3346693 -0.6114811 -0.04991656
0003a0 c9 b8 9f 3d 73 1b 87 3d 99 f4 c5 bd 2a aa b4 ba
       0.07798917 0.065970324 -0.09665794 -0.0013783623
0003b0 f5 47 97 be 88 20 16 3e 35 26 3c 3f d9 62 38 3e
       -0.29547086 0.14660847 0.734958 0.18006457
0003c0 57 56 4b be f3 7f 09 bc 22 68 17 3e 9a 3b db 3c
       -0.19857155 -0.008392322 0.14785817 0.026761819
0003d0 97 20 01 3d 96 78 36 3a 24 68 8f be 70 d1 04 be
       0.03152522 0.0006960718 -0.2800914 -0.12970519
0003e0 82 6c 89 bd 16 1a a0 3e bd 60 92 be df d5 90 3d
       -0.06710149 0.31269902 -0.2858943 0.07072043
0003f0 48 f4 ab bc 4c 31 07 bc ac 85 dc bd 90 21 94 be
       -0.020990506 -0.008251499 -0.107676834 -0.28931856

output_layer.bias f4 [4]
000000 ee f6 98 3d 8e 6e 71 3e b5 a3 d4 bd 75 77 52 bd
       0.07468973 0.2357733 -0.10382787 -0.051383454
