checkpoint_critic.pth (torch_old, 542737 bytes, 5 tensors)

first_layer.weight f4 [400, 33]
-0.007942462 0.06633915 0.011945859 -0.10033746 -0.046960223 0.008673414 -0.035910163 -0.10017013
-0.07642355 0.042607322 0.066447705 -0.007854772 0.03605061 0.0035266618 0.008876472 0.027461516
0.07274799 0.06318336 0.017853526 0.024728095 0.062322613 0.04306903 -0.102519035 -0.02620403
-0.0066694147 0.0028445534 -0.0326506 0.0076524634 -0.010729022 0.02971622 -0.06443126 -0.012995414
-0.1214104 0.036264855 0.060288005 -0.046453882 -0.049560137 0.018074766 0.021369994 0.01517368
0.025212966 0.010898918 0.020155868 -0.014549575 0.019903269 -0.024897316 0.016964054 -0.030515498
0.0374891 -0.02589652 0.038744524 0.07949492 -0.070721366 -0.009985702 0.0035684332 0.016185952
0.011895913 -0.009469046 -0.0072610728 -0.00057421863 -0.08465265 -0.05652545 0.011162609 -0.01149319
0.0069174096 -0.43227348 -0.030605473 -0.039013952 -0.05799678 0.0037127724 0.11433543 -0.054486778
0.04602996 0.063256666 0.059481904 0.0002848975 -0.01525612 -0.03076034 0.013855648 0.035361044
0.027924655 0.022838363 -0.025427694 0.03769965 -0.06522351 -0.031529576 -0.015495756 -0.025780218
-0.022950877 -0.013513473 -0.013148853 0.0041248193 -0.01903149 -0.023608904 0.034252252 -0.02976771
-0.012472779 -0.014431853 -0.12748487 0.08474485 -0.07061367 -0.052160896 -0.063877486 -0.034213733
0.15453641 -0.012855244 -0.0077464976 0.016173543 0.05046331 -0.0018348399 -0.02964017 -0.011446704
0.03389249 -0.0020786661 -0.030614583 -0.0052648154 0.03931863 -0.04445268 -0.059091166 0.0213664
0.00640406 0.028330248 0.043491993 -0.016349979 -0.019627338 0.07053013 0.003294651 -0.030184219
0.023944523 -0.027780892 0.0325762 0.060887713 -0.004655564 -0.002520456 -0.042637065 0.000101198646
-0.058725767 0.013409452 0.07165647 0.023484722 -0.11242821 -0.009199399 -0.05511801 0.029596029
-0.009282227 -0.008254227 -0.02501223 0.0044207936 0.071037665 -0.036509797 -0.057121567 0.035486653
0.0075543444 0.08564191 0.005441514 0.041688044 -0.04881543 0.018315637 -0.012460455 0.032434218
-0.011003182 0.021059874 -5.641468e-05 -0.030139262 0.06824434 0.025793185 0.0417114 0.025459938
0.009464763 -0.033091296 0.058250636 0.032592922 -0.027618952 -0.008983665 0.037261076 0.013305993
0.07133562 -0.031844072 -0.039645333 0.03993225 0.009730422 0.016937934 -0.052201103 0.03587237
-0.041501187 0.03730994 -0.07535035 -0.04043762 0.016720034 0.024678305 0.007941044 0.028960377
-0.0139026055 0.0047938838 -0.043921657 0.0060984017 0.0011893511 -0.06676587 0.04674237 0.02024426
0.071251765 -0.007093813 -0.01929595 -0.00821637 -0.014235564 -0.017562998 0.014301033 -0.038819246
-0.0064454973 -0.0112730665 -0.008180648 -0.07988672 -0.04918337 -0.090810485 0.020693067 -0.0006828039
-0.018514084 0.034758408 0.01049345 -0.018447155 -0.009788344 -0.012083746 0.00028695026 -0.04210685
0.050388914 -0.0024214187 0.025989415 0.023196753 0.04068659 -0.017422527 0.303485 0.03846008
-0.040389773 -0.041055396 0.056780998 0.0006094823 0.0413654 0.013223623 0.01174363 -0.092582636
-0.022311058 -0.021409022 -0.042887475 0.03292173 -0.022932155 0.01969645 -0.007185478 -0.058741014
0.030752888 -0.054036107 0.037816912 -0.011975622 0.07132902 -0.010926235 -0.03287447 0.004268961
00000000: 1a21 02bc d2dc 873d 90b8 433c ba7d cdbd
00000010: 5d59 40bd ef1a 0e3c 8916 13bd ff25 cdbd
00000020: f383 9cbd 0485 2e3d bc15 883d 4db1 00bc
00000030: cea9 133d 911f 673b 9f6e 113c f9f6 e03c
00000040: e6fc 943d 4766 813d 8f41 923c 9392 ca3c
00000050: ff45 7f3d 2769 303d 80f5 d1bd d5a9 d6bc
00000060: 1b8b dabb b06b 3a3b a3bc 05bd 84c1 fa3b
00000070: c8c8 2fbc 6e6f f33c 89f4 83bd b8ea 54bc
00000080: 04a6 f8bd 758a 143d 8ef0 763d 6d46 3ebd
00000090: 92ff 4abd 8811 943c 2010 af3c 079b 783c
000000a0: 6c8b ce3c 6091 323c eb1d a53c 5761 6ebc
000000b0: 2e0c a33c 75f5 cbbc 33f8 8a3c a3fb f9bc
000000c0: 2c8e 193d f024 d4bc 94b2 1e3d 3cce a23d
000000d0: 5dd6 90bd 129b 23bc 60dc 693b 6798 843c
000000e0: 13e7 423c 0f24 1bbc 4bee edbb 2987 16ba
000000f0: 5e5e adbd 3b87 67bd 60e3 363c ef4d 3cbc
00000100: 70ab e23b f352 ddbe 54b8 fabc 18cd 1fbd
00000110: 088e 6dbd fc51 733b b228 ea3d 872d 5fbd
00000120: e989 3c3d b68c 813d 4ca3 733d 4c5e 9539
00000130: cef4 79bc 1cfd fbbc cd02 633c bed6 103d
00000140: 3fc2 e43c 8517 bb3c bd4d d0bc f36a 1a3d
00000150: e793 85bd 2825 01bd e9e1 7dbc 0931 d3bc
00000160: 7a03 bcbc 9d67 5dbc 496e 57bc 7e29 873b
00000170: ede7 9bbc 7667 c1bc 174c 0c3d 6adb f3bc
00000180: a05a 4cbc 9473 6cbc 658b 02be b58e ad3d
00000190: e69d 90bd aaa6 55bd 33d2 82bd b323 0cbd
000001a0: cb3e 1e3e cd9e 52bc 55d6 fdbb 617e 843c
000001b0: 9eb2 4e3d 037f f0ba f1cf f2bc f58a 3bbc
000001c0: dad2 0a3d 3b3a 08bb 6fcb fabc 7984 acbb
000001d0: 920c 213d 0314 36bd 9409 72bd 9708 af3c
000001e0: 26d9 d13b d614 e83c a924 323d 64f0 85bc
000001f0: 83c9 a0bc 1a72 903d 12eb 573b e544 f7bc
00000200: 4e27 c43c c194 e3bc 9f6e 053d 6565 793d
00000210: b48d 98bb 3c2e 25bb 34a4 2ebd 9c3a d438
00000220: 6e8a 70bd 51b3 5b3c a1c0 923d 0863 c03c
00000230: c340 e6bd 13b9 16bc 6cc3 61bd 5f73 f23c
00000240: 7b14 18bc bd3c 07bc 73e6 ccbc 4edc 903b
00000250: 327c 913d 4c8b 15bd 4ef8 69bd 745a 113d
00000260: 6f8a f73b 0765 af3d ba4e b23b 15c1 2a3d
00000270: b0f2 47bd ad0a 963c f026 4cbc bed9 043d
00000280: b146 34bc c285 ac3c cd9e 6cb8 9de6 f6bc
00000290: b0c3 8b3d 3b4c d33c 93d9 2a3d 5c91 d03c
000002a0: 1812 1b3c bd8a 07bd 3898 6e3d 2880 053d
000002b0: 2441 e2bc 3930 13bc 129f 183d 6101 5a3c
000002c0: 6918 923d ee6e 02bd 2563 22bd 0090 233d
000002d0: 596c 1f3c 6cc1 8a3c d3d0 55bd e8ee 123d
000002e0: 26fd 29bd 4fd2 183d 4951 9abd eba1 25bd
000002f0: 74f8 883c 282a ca3c 271b 023c 503e ed3c
00000300: c1c7 63bc 0316 9d3b 32e7 33bd 1ad5 c73b
00000310: 00e4 9b3a 8bbc 88bd ed74 3f3d 4ad7 a53c
00000320: 72ec 913d 3773 e8bb 8a12 9ebc f49d 06bc
00000330: 483c 69bc 47e0 8fbc e14e 6a3c ee00 1fbd
00000340: c034 d3bb abb2 38bc 2008 06bc a69b a3bd
00000350: 8074 49bd d9fa b9bd 8284 a93c 32fe 32ba
00000360: d9aa 97bc d55e 0e3d b8ec 2b3c 7d1e 97bc
00000370: 4a5f 20bc e7fa 45bc d071 9639 3b78 2cbd
00000380: 9b64 4e3d aab0 1ebb c1e7 d43c 1e07 be3c
00000390: fba6 263d b0b9 8ebc 6362 9b3e 5188 1d3d
000003a0: bf6f 25bd b429 28bd 3193 683d aac5 1f3a
000003b0: c46e 293d e5a7 583c 5b68 403c f79b bdbd
000003c0: aec5 b6bc f961 afbc c7aa 2fbd f0d8 063d
000003d0: 37dc bbbc 735a a13c 2974 ebbb 6b9a 70bd
000003e0: 7bed fb3c f754 5dbd e8e5 1a3d 6635 44bc
000003f0: f314 923d f303 33bc 61a7 06bd a4e2 8b3b

first_layer.bias f4 [400]
0.056460366 0.13559215 0.11681976 0.086655654 0.09796278 0.07120002 0.0930922 0.027216878
0.12201586 0.097905084 0.098254904 0.05401349 0.053333312 0.07362348 0.068069495 0.05177487
0.13697803 0.081734 0.07832685 0.09232946 0.08543249 0.08733251 0.10067273 0.09784179
0.059006102 0.074474245 0.075049214 0.050638158 0.0680779 0.06279422 0.0658 0.07716023
0.07793509 0.054183867 0.061387762 0.017599136 0.08920486 0.033258826 0.047480706 0.00056718895
0.11307435 0.07214469 0.091699354 0.058800023 0.10969892 0.07804427 0.042579502 0.070379935
0.085271865 0.034026533 0.09577915 0.05526195 0.07102021 0.06685601 0.070564784 0.08554195
0.0651739 0.047363743 0.058233462 0.10719802 0.049981985 0.054184914 0.101639785 0.06013403
0.03928037 0.05640463 0.09751584 0.091755636 0.047138065 0.09354091 0.108173005 0.012905451
0.07103155 0.12188884 0.050559476 0.050164193 0.14469835 0.083038 0.12645257 0.069741376
0.06351878 0.11112873 0.04908938 0.017175682 0.07425165 0.097903945 0.12892222 0.017489681
0.10336069 0.060211383 0.104613595 0.089703575 0.08290554 0.051169425 0.08684094 0.10423024
0.048616495 0.053245444 0.082918085 0.097470514 0.038458887 0.060719512 0.07274661 0.054343466
0.06177411 0.04792451 0.08491754 0.048894722 0.03977664 0.10593229 0.04482272 0.07312647
0.083836846 0.029309494 0.08842376 0.030983394 0.08002146 0.07063197 0.08492924 0.085707456
0.1109623 0.07141119 0.09512537 0.054788813 0.074673906 0.055793 0.09060932 0.07764701
0.062566265 0.09172133 0.08049007 0.075703554 0.12018389 0.07269738 0.034505293 0.026094219
0.084928155 0.10901653 0.068410635 0.08895603 0.07351974 0.034873687 0.06223312 0.062394083
0.06457659 0.04854742 0.05222355 0.0682852 0.03818868 0.083321005 0.1126272 0.03146373
0.073518895 0.08311629 0.09450245 0.10081308 0.09260548 0.07613065 0.11777821 0.10121885
0.06578223 0.03228125 0.054532904 0.072270155 0.029761566 0.08398444 0.09690053 0.12363986
0.07327084 0.09311941 0.123020284 0.0998769 0.026588384 0.044856157 0.052318636 0.017804706
0.04227265 0.06563427 0.05988584 0.11389308 0.092160806 0.09957342 0.081438914 0.097899824
0.06962656 0.09478421 0.10565546 0.06318106 0.081637114 0.055640366 0.1234783 0.040045682
0.04815812 0.03788171 0.07147195 0.037162486 0.10066636 0.0446808 0.09666494 0.080442116
0.09433998 0.06758453 0.059639122 0.0847328 0.11094155 0.05441555 0.119772 0.08430955
0.07366162 0.08136059 0.05932721 0.08749219 0.10431232 0.10054835 0.07670343 0.07485381
0.039600246 0.071336 0.056836233 0.042451482 0.07451223 0.06250963 0.019491388 0.090024106
0.08719279 0.097499214 0.07822991 0.08697499 0.09058605 0.048605412 0.092295356 0.046134505
0.051567275 0.05903439 0.07707359 0.07420594 0.036045164 0.06864641 0.074795336 0.05819337
0.054768573 0.09612655 0.09309555 0.09554355 0.11792526 0.028814731 0.109856404 0.12171804
0.05089396 0.02997659 0.063630156 0.048835397 0.028272223 0.0487744 0.08526981 0.07636821
00000000: fc42 673d abd8 0a3e 333f ef3d 8578 b13d
00000010: b6a0 c83d 51d1 913d 20a7 be3d eef5 de3c
00000020: 74e3 f93d 7682 c83d de39 c93d 403d 5d3d
00000030: 0874 5a3d e8c7 963d 0568 8b3d e311 543d
00000040: f843 0c3e 2864 a73d d469 a03d 3a17 bd3d
00000050: 3bf7 ae3d 63db b23d 812d ce3d 4761 c83d
00000060: 62b0 713d f485 983d 67b3 993d f569 4f3d
00000070: 6d6c 8b3d 429a 803d 27c2 863d 2f06 9e3d
00000080: 6f9c 9f3d e7ef 5d3d bc71 7b3d 102c 903c
00000090: 0ab1 b63d 683a 083d 217b 423d 68af 143a
000000a0: 8693 e73d 98c0 933d dfcc bb3d 4bd8 703d
000000b0: d4a9 e03d add5 9f3d d867 2e3d 5b23 903d
000000c0: 04a3 ae3d 685f 0b3d dc27 c43d 5b5a 623d
000000d0: 0b73 913d ceeb 883d 4584 903d 9e30 af3d
000000e0: e579 853d 7c00 423d 3686 6e3d a38a db3d
000000f0: e9b9 4c3d 00f1 5d3d 8528 d03d 1a4f 763d
00000100: 74e4 203d 8b08 673d 62b6 c73d 61ea bb3d
00000110: d813 413d 6092 bf3d cf89 dd3d 6271 533c
00000120: fd78 913d dba0 f93d 7417 4f3d f878 4d3d
00000130: ce2b 143e d40f aa3d c87c 013e 91d4 8e3d
00000140: 2216 823d 7697 e33d f211 493d 04b4 8c3c
00000150: 4011 983d dd81 c83d 3004 043e 8546 8f3c
00000160: c5ae d33d 36a0 763d a73f d63d 82b6 b73d
00000170: 61ca a93d 0897 513d aad9 b13d aa76 d53d
00000180: 1722 473d e517 5a3d f5d0 a93d 9f9e c73d
00000190: 1187 1d3d 06b5 783d 2dfc 943d 4197 5e3d
000001a0: d906 7d3d 7e4c 443d 3fe9 ad3d d545 483d
000001b0: d4ec 223d 07f3 d83d 0798 373d 55c3 953d
000001c0: a7b2 ab3d 771a f03c 8417 b53d e3d0 fd3c
000001d0: 4be2 a33d 7fa7 903d 62ef ad3d 6487 af3d
000001e0: 3440 e33d 0840 923d 17d1 c23d 3c6a 603d
000001f0: a2ee 983d 3387 643d 6191 b93d 6505 9f3d
00000200: be22 803d 65d8 bb3d fad7 a43d 770a 9b3d
00000210: f922 f63d 5de2 943d 6c55 0d3d 8bc3 d53c
00000220: d0ee ad3d 0f44 df3d e01a 8c3d 942e b63d
00000230: 8491 963d b6d7 0e3d 28e8 7e3d f090 7f3d
00000240: bb40 843d a9d9 463d 5ce8 553d 1cd9 8b3d
00000250: bc6b 1c3d 34a4 aa3d 17a9 e63d 1de0 003d
00000260: 1391 963d e038 aa3d 808a c13d 1777 ce3d
00000270: f1a7 bd3d 63ea 9b3d b435 f13d d44b cf3d
00000280: d5b8 863d 5839 043d e55d 5f3d 6002 943d
00000290: 87ce f33c 0900 ac3d c973 c63d e536 fd3d
000002a0: 060f 963d 64b5 be3d 0ff2 fb3d 438c cc3d
000002b0: e2cf d93c 17bb 373d 114c 563d 2ddb 913c
000002c0: 1626 2d3d 436b 863d db4a 753d c640 e93d
000002d0: cebe bc3d 26ed cb3d 72c9 a63d b47f c83d
000002e0: 5f98 8e3d 391e c23d e461 d83d 1265 813d
000002f0: 5c31 a73d 27e7 633d 31e2 fc3d f106 243d
00000300: 7341 453d da29 1b3d e35f 923d b137 183d
00000310: 2a2a ce3d 3703 373d 45f8 c53d d6be a43d
00000320: 5235 c13d c269 8a3d 2748 743d 6488 ad3d
00000330: 5335 e33d d7e2 5e3d 064b f53d 7caa ac3d
00000340: e7db 963d 62a0 a63d 1701 733d 1b2f b33d
00000350: b3a1 d53d 4bec cd3d b016 9d3d f44c 993d
00000360: de33 223d 9c18 923d 1ccd 683d 9be1 2d3d
00000370: de99 983d 0d05 803d 67ac 9f3c 8f5e b83d
00000380: 2292 b23d abad c73d 0137 a03d f21f b23d
00000390: 2e85 b93d 7816 473d 5905 bd3d 89f7 3c3d
000003a0: 3538 533d 0bce 713d c2d8 9d3d 49f9 973d
000003b0: 18a4 133d 7d96 8c3d 4c2e 993d 2c5c 6e3d
000003c0: 0355 603d ffdd c43d e1a8 be3d 56ac c33d
000003d0: cc82 f13d df0c ec3c 65fc e03d 4f47 f93d
000003e0: 2f76 503d 7791 f53c 8750 823d a007 483d
000003f0: 269b e73c aac7 473d f0a1 ae3d f066 9c3d

second_layer.weight f4 [300, 404]
0.022051888 0.075964734 0.052369643 0.09386987 -0.0609819 0.07698649 0.015235755 -0.041835755
-0.04329488 -0.038200524 0.055140365 -0.058317885 -0.08315868 0.00128699 -0.065844595 0.031013688
-0.016571682 -0.079484165 -0.015781322 -0.032978855 0.047344837 0.056990653 0.03475383 -0.01229379
0.01734278 -0.073966175 0.033859026 -0.029194942 -0.1168192 -0.095505655 0.0040068263 0.03939688
0.029893726 -0.008752595 0.1241474 0.045728166 0.023992116 -0.07277198 0.060128383 -0.061585743
0.0014267892 0.037932903 -0.02713123 -0.008757416 0.042443637 0.030166466 -0.050475057 0.0067658233
-0.028606294 -0.006387262 0.004081454 -0.059905153 -0.11494188 0.014168445 0.010274691 -0.12032072
-0.0976485 0.026152791 0.026245425 -0.11870536 0.01348355 -0.09737726 -0.046525095 -0.04606792
-0.0022040321 -0.076251656 -0.009368447 0.040989466 -0.028196845 -0.05003691 -0.13364863 -0.053031057
-0.076956235 -0.050451584 0.061833825 0.05388496 -0.07303887 0.013869245 0.02713216 -0.0037115559
-0.10706508 -0.024044381 0.046174705 -0.081677094 -0.012963101 -0.14949274 0.022602497 0.032076824
0.014871004 -0.046388794 -0.036374725 -0.12071892 -0.047366038 0.046146657 -0.11829212 -0.04178734
-0.03331568 0.0014944621 -0.016176805 0.016737722 -0.04906485 0.054030143 -0.14955124 -0.09069774
-0.018440044 0.03152389 0.011069079 -0.011284293 -0.012742675 0.030137822 0.05511546 -0.05475309
0.06295495 0.07206182 -0.016192975 0.069279574 -0.036727693 -0.007307575 -0.058077432 -0.19403835
0.007935737 -0.10613438 0.013356815 0.032909427 0.06002408 0.111001305 -0.06186369 -0.095423594
-0.022147685 -0.0027866883 0.09703765 -0.03501818 -0.031554498 0.06993687 0.10378363 0.02584473
-0.052942496 0.021505766 0.06295558 0.10444309 -0.0038144244 -0.0017854739 -0.026077986 -0.061321378
-0.019574253 0.062806144 -0.14354752 -0.07278151 0.01742577 0.0398538 0.02250405 0.028215975
0.0069925934 -0.08111468 -0.09906741 -0.17308344 0.0698074 0.03241051 -0.068673655 -0.041514575
0.045238156 -0.01333554 -0.0077462047 0.12370748 0.11040391 0.019289892 0.036424696 -0.032482736
-0.008221302 -0.020792522 -0.05034098 0.013614217 -0.010803355 0.040679377 0.061360877 -0.045723055
0.018316466 -0.14604487 -0.047144808 0.03964726 0.0946084 0.005378065 0.014773967 -0.017674487
-0.02598789 -0.15893038 -0.047255978 0.030155268 -0.33753103 -0.1055883 -0.06588624 0.0035970677
0.027833076 0.03774637 -0.09073323 -0.015754929 -0.039417014 -0.011939179 -0.106331736 0.011997629
-0.33766854 -0.06526457 -0.050581157 -0.046122476 0.012030518 -0.14614426 0.021205483 0.0068619247
-0.13706823 0.0458221 -0.021502173 -0.009340987 0.026420608 -0.038169846 -0.052297283 0.014608169
0.0622985 0.09947396 -0.019136047 0.05093376 -0.19699287 0.08508539 0.07984515 -0.06554405
-0.053008772 -0.47650963 -0.15369378 -0.006866859 0.1619131 0.0058352393 0.020596256 0.010339055
0.00993265 -0.011702445 0.07901308 -0.084559284 0.01197591 0.024126738 -0.01564316 0.04775358
0.056057055 -0.011445976 -0.030177873 0.028294472 0.03624611 0.018161979 0.08646641 0.029717915
0.0023143599 -0.022274181 -0.054616116 0.011140622 -0.06551578 -0.16853473 -0.0065843156 0.041321855
00000000: 29a6 b43c 6693 9b3d 8d81 563d d93e c03d
00000010: 28c8 79bd 18ab 9d3d 639f 793c f85b 2bbd
00000020: f955 31bd 2778 1cbd ddda 613d bcde 6ebd
00000030: 194f aabd 38b0 a83a 88d9 86bd 6b10 fe3c
00000040: 56c1 87bc 98c8 a2bd d547 81bc d614 07bd
00000050: a9ec 413d 086f 693d 085a 0e3d e46b 49bc
00000060: 7212 8e3c 947b 97bd c3af 0a3d 3b2a efbc
00000070: e83e efbd 7898 c3bd b24b 833b 9f5e 213d
00000080: b0e3 f43c 0b67 0fbc fe40 fe3d 754d 3b3d
00000090: 1d8b c43c 7a09 95bd 2e49 763d 5541 7cbd
000000a0: 1a03 bb3a 885f 1b3d 5042 debc 447b 0fbc
000000b0: 61d9 2d3d aa1f f73c efbe 4ebd d7b3 dd3b
000000c0: bf57 eabc 3d4c d1bb b8bd 853b 1b5f 75bd
000000d0: a666 ebbd c422 683c 2d57 283c b66a f6bd
000000e0: f0fb c7bd 613e d63c a500 d73c cc1b f3bd
000000f0: 1cea 5c3c bb6d c7bd 1991 3ebd b7b1 3cbd
00000100: 8671 10bb d429 9cbd 1d7e 19bc 92e4 273d
00000110: 12fd e6bc 81f3 4cbd 30db 08be 1837 59bd
00000120: 3b9b 9dbd 52a6 4ebd 7745 7d3d 7ab6 5c3d
00000130: 6795 95bd d43b 633c 4344 de3c 933d 73bb
00000140: f044 dbbd b9f8 c4bc b021 3d3d 5246 a7bd
00000150: 3063 54bc a014 19be df28 b93c fd62 033d
00000160: 83a5 733c 2d02 3ebd aafd 14bd 7b3b f7bd
00000170: e402 42bd 4704 3d3d 2443 f2bd 3429 2bbd
00000180: 0676 08bd d4e1 c33a 3885 84bc 8c1d 893c
00000190: 39f8 48bd b64e 5d3d f623 19be bdbf b9bd
000001a0: 930f 97bc 321f 013d 155b 353c c1e1 38bc
000001b0: a7c6 50bc 98e3 f63c c0c0 613d c744 60bd
000001c0: 86ee 803d 2695 933d 21a7 84bc 73e2 8d3d
000001d0: c76f 16bd 6274 efbb 9ae2 6dbd fdb1 46be
000001e0: e504 023c fb5c d9bd 8bd6 5a3c 09cc 063d
000001f0: cfdb 753d a754 e33d c864 7dbd 726d c3bd
00000200: 106f b5bc dfa0 36bb adbb c63d 396f 0fbd
00000210: 4a3f 01bd 103b 8f3d 838c d43d 54b8 d33c
00000220: 3bda 58bd dc2c b03c dbee 803d 42e6 d53d
00000230: 6cfb 79bb 9006 eaba 80a1 d5bc 202c 7bbd
00000240: 2f5a a0bc 82a0 803d 1ffe 12be 790e 95bd
00000250: 7dc0 8e3c bd3d 233d 6a5a b83c 3025 e73c
00000260: 2022 e53b 741f a6bd dbe3 cabd c93c 31be
00000270: 2ff7 8e3d e2c0 043d c6a4 8cbd 300b 2abd
00000280: a54b 393d 4f7d 5abc e0d3 fdbb 595a fd3d
00000290: 721b e23d d605 9e3c 1032 153d 9e0c 05bd
000002a0: a4b2 06bc 1455 aabc 5832 4ebd 2a0e 5f3c
000002b0: 8e00 31bc 6b9f 263d 8b55 7b3d 1948 3bbd
000002c0: 6a0c 963c c98c 15be ea1a 41bd 2a65 223d
000002d0: 0cc2 c13d 7b3a b03b 820e 723c 16ca 90bc
000002e0: 8ee4 d4bc a5be 22be 7c8f 41bd 2e08 f73c
000002f0: ded0 acbe ae3e d8bd 5def 86bd c8bc 6b3b
00000300: 3102 e43c f09b 1a3d 58d2 b9bd 7b10 81bc
00000310: bc73 21bd 8c9c 43bc 74c4 d9bd b491 443c
00000320: e4e2 acbe 6ea9 85bd 302e 4fbd ecea 3cbd
00000330: a61b 453c d7a6 15be 1fb7 ad3c ffd9 e03b
00000340: 9d5b 0cbe f4af 3b3d 5325 b0bc f00a 19bc
00000350: 0870 d83c fc57 1cbd ad35 56bd 1a57 6f3c
00000360: b62c 7f3d 01b9 cb3d 33c3 9cbc eb9f 503d
00000370: 80b8 49be 4041 ae3d db85 a33d f53b 86bd
00000380: ba1f 59bd 12f9 f3be e761 1dbe 6303 e1bb
00000390: 8ccc 253e 8935 bf3b 7bb9 a83c 2465 293c
000003a0: 8ebc 223c 9dbb 3fbc 9cd1 a13d 6b2d adbd
000003b0: 9b36 443c 70a5 c53c 1626 80bc 4299 433d
000003c0: 159c 653d e787 3bbc 9637 f7bc cfc9 e73c
000003d0: cd76 143d 6ec8 943c 4d15 b13d fc72 f33c
000003e0: 84ac 173b 5878 b6bc 26b5 5fbd 2887 363c
000003f0: 232d 86bd 5e94 2cbe 3ec1 d7bb 1b41 293d

second_layer.bias f4 [300]
0.10039657 0.070145085 0.15382576 0.12355545 0.107095316 0.13120148 0.07426131 0.066080615
0.1371856 0.10303106 0.1172336 0.060019646 0.071618184 0.08502292 0.09495958 0.065756865
0.05655945 0.07780043 0.11746212 0.17516185 0.051546175 0.08693284 0.07086167 0.06942479
0.13857087 0.061783016 0.05322084 0.15034668 0.101991646 0.08020453 0.15261221 0.1360565
0.12071428 0.15250927 0.15793811 0.1326111 0.10012689 0.054598436 0.08231654 0.14894073
0.059549782 0.060866747 0.12141476 0.07810281 0.08718976 0.13217652 0.06112809 0.06555637
0.08518022 0.06523176 0.09592989 0.069897264 0.11924817 0.0801126 0.14754911 0.11040797
0.12897827 0.08452602 0.0904436 0.054441262 0.15841416 0.13293935 0.104044914 0.13614576
0.07024309 0.078362755 0.09936908 0.131393 0.12623654 0.12414068 0.0754061 0.13288766
0.124421686 0.08838378 0.080404446 0.13885412 0.13100642 0.13152625 0.12484071 0.14539185
0.102876335 0.057793595 0.08648867 0.081343904 0.13181405 0.08694213 0.08076107 0.08519845
0.09733375 0.06194373 0.05447335 0.07278973 0.08445225 0.06731376 0.053352136 0.05906387
0.14408273 0.123506054 0.1258134 0.11465973 0.118619606 0.118176684 0.080862984 0.11257074
0.063388415 0.1417674 0.08950115 0.13619493 0.071818344 0.15851033 0.14552142 0.15714225
0.15269983 0.12424235 0.08558873 0.09883215 0.0668927 0.12158659 0.09904348 0.056291234
0.08556144 0.12592442 0.114445336 0.06446653 0.08454433 0.093984686 0.121650495 0.07951583
0.05875761 0.07331675 0.1311812 0.12769057 0.10327484 0.13275658 0.094455406 0.11364968
0.15342823 0.093080446 0.10535707 0.12649924 0.13887104 0.106710404 0.07568142 0.1343247
0.042451695 0.113058984 0.12273896 0.113908485 0.13740778 0.1038973 0.13273376 0.15013124
0.11409825 0.09033267 0.13150184 0.04263034 0.13707727 0.13605058 0.1377401 0.123470545
0.05656497 0.12314686 0.15002714 0.13172983 0.09496283 0.13581382 0.16540362 0.08371735
0.1357378 0.11495628 0.14158386 0.18948998 0.11028306 0.15460084 0.081470214 0.096823946
0.08096266 0.10649648 0.094070494 0.06553345 0.13774928 0.060923055 0.039676324 0.15132935
0.074500345 0.043637775 0.12828712 0.06659472 0.123628564 0.09219997 0.085485004 0.110321775
0.07567385 0.12643796 0.14372924 0.06689933 0.06967318 0.13056803 0.115176916 0.12891635
0.14090861 0.09575568 0.07130643 0.12759241 0.062278412 0.110186726 0.116326615 0.13131906
0.0776458 0.06480067 0.15515915 0.11985055 0.14865614 0.14130408 0.10164982 0.14242789
0.12759672 0.07773994 0.079878084 0.0694813 0.07032608 0.1275227 0.15575506 0.057795107
0.13925147 0.13329925 0.07694186 0.08621017 0.12214479 0.07004501 0.124345906 0.10058497
0.13236621 0.06779894 0.09794608 0.08447481 0.080963105 0.12644696 0.09226589 0.062077764
0.14626198 0.084849015 0.11006002 0.13090312 0.06930783 0.14733346 0.06502029 0.08151823
0.14461088 0.07539091 0.15103842 0.07045804 0.06327962 0.085513406 0.13668638 0.08461529
00000000: b89c cd3d 3aa8 8f3d 8084 1d3e a40a fd3d
00000010: ca54 db3d ae59 063e 5016 983d 4655 873d
00000020: 627a 0c3e f301 d33d 2b18 f03d 29d7 753d
00000030: 8eac 923d 7f20 ae3d 2b7a c23d 89ab 863d
00000040: e2aa 673d d555 9f3d fb8f f03d a15d 333e
00000050: 1522 533d d809 b23d ec1f 913d 962e 8e3d
00000060: 86e5 0d3e 3010 7d3d 18fe 593d 7bf4 193e
00000070: ffe0 d03d 4642 a43d 6046 1c3e 6552 0b3e
00000080: 0c39 f73d 642b 1c3e 87ba 213e 34cb 073e
00000090: 540f cd3d 9ca2 5f3d 9395 a83d eb83 183e
000000a0: 79ea 733d 694f 793d 4da8 f83d 5ef4 9f3d
000000b0: 8b90 b23d 4859 073e 7361 7a3d 6b42 863d
000000c0: f872 ae3d 3b98 853d e476 c43d 4c26 8f3d
000000d0: 6238 f43d 1312 a43d 1d17 173e 931d e23d
000000e0: e112 043e fa1b ad3d 7f3a b93d cdfd 5e3d
000000f0: 5237 223e 4121 083e 8015 d53d cb69 0b3e
00000100: 9cdb 8f3d a77c a03d 0482 cb3d e38b 063e
00000110: 2744 013e 783d fe3d 836e 9a3d b413 083e
00000120: ccd0 fe3d 8e02 b53d 16ab a43d c62f 0e3e
00000130: 8c26 063e d1ae 063e 7cac ff3d 9ae1 143e
00000140: d4b0 d23d fab8 6c3d f920 b13d a297 a63d
00000150: 43fa 063e b70e b23d 0f66 a53d 867c ae3d
00000160: eb56 c73d b5b8 7d3d 731f 5f3d c812 953d
00000170: 4df5 ac3d ccdb 893d c587 5a3d f5ec 713d
00000180: 6c8a 133e bef0 fc3d 3ad5 003e b8d2 ea3d
00000190: d6ee f23d 9e06 f23d 7e9b a53d 7d8b e63d
000001a0: c9d1 813d 792b 113e 614c b73d af76 0b3e
000001b0: 7f15 933d 8850 223e 9103 153e e6e9 203e
000001c0: 585d 1c3e c672 fe3d 2549 af3d 8368 ca3d
000001d0: 0aff 883d 6402 f93d 4fd7 ca3d a391 663d
000001e0: d63a af3d 55f2 003e 5162 ea3d 0707 843d
000001f0: 9425 ad3d 0b7b c03d e523 f93d 32d9 a23d
00000200: d2ab 703d 1827 963d 5d54 063e 51c1 023e
00000210: c281 d33d 57f1 073e d671 c13d 2ac1 e83d
00000220: 4a1c 1d3e f6a0 be3d 73c5 d73d 0489 013e
00000230: 3634 0e3e fc8a da3d dcfe 9a3d 6a8c 093e
00000240: d4e1 2d3d 788b e73d 905e fb3d da48 e93d
00000250: a0b4 0c3e 1cc8 d43d 5ceb 073e 01bc 193e
00000260: 58ac e93d 5600 b93d 6ba8 063e 279d 2e3d
00000270: fc5d 0c3e d850 0b3e be0b 0d3e 20de fc3d
00000280: acb0 673d 6c34 fc3d b7a0 193e 2fe4 063e
00000290: df7b c23d c712 0b3e 915f 293e 0174 ab3d
000002a0: dafe 0a3e 336e eb3d 5cfb 103e a909 423e
000002b0: 16dc e13d af4f 1e3e dbd9 a63d a24b c63d
000002c0: c0cf a53d d41a da3d 08a8 c03d 6736 863d
000002d0: 260e 0d3e 748a 793d a483 223d 15f6 1a3e
000002e0: a393 983d 86bd 323d b35d 033e d062 883d
000002f0: f930 fd3d 56d3 bc3d c312 af3d 62f0 e13d
00000300: e4fa 9a3d f478 013e c22d 133e 8402 893d
00000310: d0b0 8e3d a0b3 053e e0e1 eb3d a602 043e
00000320: 594a 103e 8e1b c43d 1b09 923d 96a7 023e
00000330: a617 7f3d 94a9 e13d a63c ee3d 8178 063e
00000340: c304 9f3d 37b6 843d 0ae2 1e3e 3574 f53d
00000350: 5139 183e 04b2 103e c82d d03d 9ed8 113e
00000360: b7a8 023e 1e36 9f3d 1f97 a33d 364c 8e3d
00000370: 1f07 903d 5095 023e 417e 1f3e 90ba 6c3d
00000380: f097 0e3e 997f 083e b293 9d3d f58e b03d
00000390: 0c27 fa3d c273 8f3d 11a9 fe3d 7eff cd3d
000003a0: 028b 073e 2cda 8a3d f497 c83d 2101 ad3d
000003b0: fccf a53d 507b 013e e6f5 bc3d 4145 7e3d
000003c0: b3c5 153e 52c5 ad3d 2667 e13d 780b 063e
000003d0: 43f1 8d3d 95de 163e 5c29 853d 08f3 a63d
000003e0: e014 143e 8d66 9a3d d1a9 1a3e 4e4c 903d
000003f0: bf98 813d a721 af3d 84f7 0b3e c84a ad3d

output_layer.weight f4 [1, 300]
0.21023646 -0.06487561 0.049352054 0.054322194 -0.07690123 0.082699105 -0.024181053 -0.063215785
0.0703516 -0.15571205 0.10192788 -0.011781707 -0.13085943 -0.03072189 -0.13370214 -0.02480493
-0.043383557 -0.016965525 0.090534724 0.056612197 -0.05574707 -0.070417084 -0.019553343 -0.014793407
0.0914441 -0.14284939 -0.087780826 0.05280919 0.10893322 -0.046264023 0.051553037 0.13419099
0.06987055 0.054065272 0.057509433 0.0552158 -0.099127166 -0.073876314 -0.0617212 0.050025657
-0.044324342 -0.04686472 0.055895 -0.02519041 -0.1062142 0.061730105 -0.29958987 -0.050352797
-0.09723187 -0.035323262 -0.07230522 -0.02973491 0.027903158 -0.066504784 0.057587095 0.09755077
0.17185827 -0.047597278 -0.06249937 -0.028068041 0.052498568 0.102935 0.06290261 0.06239016
-0.039902166 -0.08623957 -0.19941698 0.06336505 0.057851132 0.017214157 -0.09671815 0.060345825
0.05172257 -0.020136004 -0.0209227 0.049379714 0.059599303 0.20760441 0.11546483 0.04682394
0.13492711 -0.06251487 -0.06853268 -0.045439795 0.077592306 -0.063854754 -0.033350103 -0.076763235
-0.0483502 -0.080967285 -0.049005058 -0.10589932 -0.1095811 -0.06225888 -0.07363069 -0.043852028
0.06807872 0.09302279 0.112120345 0.14318252 0.08414779 0.07421027 -0.18267156 0.06992906
-0.029030219 0.047131922 -0.06702575 0.08030582 -0.12764986 0.118646145 0.088279605 0.064620025
0.07234377 0.09953379 -0.121684864 -0.035352707 -0.04471617 0.07991179 -0.14957723 -0.08296555
-0.033569485 0.19576347 0.10892319 -0.12921642 -0.21724047 -0.07022711 0.07023951 -0.018961638
-0.07565305 -0.059461597 0.07443459 0.053295564 0.1399112 0.16220842 0.2717782 0.047190715
0.07059711 -0.24918447 -0.11282321 0.06300734 0.053443544 0.057035115 -0.05204729 0.048637953
-0.072585106 0.08705926 0.0583745 0.12487155 0.0567308 0.16385612 0.053729348 0.056918833
0.08511301 -0.11997371 0.0508339 -0.016965875 0.07385854 0.07649946 0.08859305 0.08286864
-0.1193411 0.059582308 0.05793808 0.031671427 -0.11431522 0.04136321 0.04754291 -0.036524396
0.26766837 0.09295866 0.05015876 0.05095101 0.037043948 0.05659709 -0.091716625 -0.0824015
-0.036223184 0.12259267 -0.06282569 -0.110682026 0.058499925 -0.051709555 -0.051644694 0.052251548
-0.02160333 -0.074165165 0.05211137 -0.1751158 0.09940575 -0.1381481 -0.022704214 0.14267017
-0.025249025 0.05354777 0.07868338 -0.024157787 -0.06885964 0.06782061 0.035250515 0.061875824
0.15064041 -0.08848665 -0.12544371 0.0750152 -0.047044806 0.058931734 0.07907361 0.20765863
-0.104693 -0.0029706992 0.049914163 0.08349675 0.056918945 0.040469956 -0.11235654 0.05886062
0.049893577 -0.046510432 -0.028781455 -0.20541266 -0.21665639 0.078558356 0.07030972 -0.0617608
0.06784324 0.06599269 -0.019320302 -0.20248967 0.065011986 -0.05940479 0.074220724 0.053076822
0.048054125 -0.17915167 0.0764609 -0.012562098 -0.21680586 0.08627876 -0.037422664 -0.14523259
0.16955148 -0.043813627 0.22166048 0.0388418 -0.050407615 0.06416963 -0.014409257 -0.13980898
0.05503789 -0.09116444 0.09156667 -0.058193192 -0.034112137 -0.06302688 0.047946516 -0.08636091
00000000: 3a48 573e 81dd 84bd 6125 4a3d f380 5e3d
00000010: 647e 9dbd 265e a93d 5817 c6bc 4777 81bd
00000020: 8014 903d fb72 1fbe 90bf d03d 1008 41bc
00000030: 0400 06be 79ac fbbc 37e9 08be b533 cbbc
00000040: f5b2 31bd 49fb 8abc 456a b93d 31e2 673d
00000050: 0a57 64bd d536 90bd 552e a0bc 0c60 72bc
00000060: 0b47 bb3d 1c47 12be 6fc6 b3bd 734e 583d
00000070: 6118 df3d 587f 3dbd 4729 533d 5d69 093e
00000080: 4a18 8f3d 8c73 5d3d 038f 6b3d f629 623d
00000090: 2f03 cbbd 774c 97bd 5ecf 7cbd b4e7 4c3d
000000a0: 718d 35bd 38f5 3fbd 28f2 643d 1e5c cebc
000000b0: d586 d9bd b5d8 7c3d d863 99be bc3e 4ebd
000000c0: 8121 c7bd 20af 10bd c214 94bd a096 f3bc
000000d0: 2a95 e43c a933 88bd 72e0 6b3d b3c8 c73d
000000e0: 9dfb 2f3e 5df5 42bd 57ff 7fbd f3ee e5bc
000000f0: bd08 573d 96cf d23d 15d3 803d d38c 7f3d
00000100: 7470 23bd 5f9e b0bd f733 4cbe 89c5 813d
00000110: 4ff5 6c3d b404 8d3c 2a14 c6bd 2f2d 773d
00000120: 0cdb 533d 43f4 a4bc 1566 abbc 6242 4a3d
00000130: 661e 743d 4096 543e d378 ec3d 76ca 3f3d
00000140: 552a 0a3e cc07 80bd dd5a 8cbd 141f 3abd
00000150: b7e8 9e3d 48c6 82bd 1e9a 08bd 0b36 9dbd
00000160: dc0a 46bd 2dd2 a5bd 87b9 48bd bee1 d8bd
00000170: 0e6c e0bd 2b03 7fbd b0cb 96bd 2f9e 33bd
00000180: db6c 8b3d bc82 be3d 5a9f e53d 709e 123e
00000190: ad55 ac3d 8efb 973d 410e 3bbe f836 8f3d
000001a0: c8d0 edbc 670d 413d cc44 89bd 6177 a43d
000001b0: a5b6 02be c0fc f23d f0cb b43d 8157 843d
000001c0: f828 943d 5fd8 cb3d ea35 f9bd 00ce 10bd
000001d0: 4d28 37bd cba8 a33d c62a 19be d8e9 a9bd
000001e0: 2880 09bd 3876 483e 1f13 df3d 4f51 04be
000001f0: 4974 5ebe 3bd3 8fbd bbd9 8f3d 7055 9bbc
00000200: fcef 9abd 018e 73bd 2a71 983d 734c 5a3d
00000210: e244 0f3e f719 263e 8326 8b3e 0d4b 413d
00000220: 3895 903d 372a 7fbe db0f e7bd fe09 813d
00000230: 9ee7 5a3d a79d 693d 8a2f 55bd 9738 473d
00000240: 80a7 94bd 204c b23d 1a1a 6f3d a8bc ff3d
00000250: 8e5e 683d e6c9 273e 4e13 5c3d b923 693d
00000260: bb4f ae3d c7b4 f5bd 3537 503d 05fc 8abc
00000270: 2543 973d c0ab 9c3d 4670 b53d 09b7 a93d
00000280: 1b69 f4bd 940c 743d 7b50 6d3d e6b9 013d
00000290: 191e eabd 786c 293d 5bbc 423d 9b9a 15bd
000002a0: d40b 893e 1c61 be3d 4673 4d3d 02b2 503d
000002b0: 65bb 173d 5ad2 673d edd5 bbbd 1ec2 a8bd
000002c0: c35e 14bd de11 fb3d c1aa 80bd 42ad e2bd
000002d0: 9e9d 6f3d 66cd 53bd 6389 53bd b805 563d
000002e0: 77f9 b0bc e8e3 97bd bb72 553d 8e51 33be
000002f0: 3e95 cb3d b276 0dbe 30fe b9bc 2118 123e
00000300: 0bd7 cebc e854 5b3d c024 a13d 8de6 c5bc
00000310: 4806 8dbd 88e5 8a3d d862 103d 8171 7d3d
00000320: 7b41 1a3e 7d38 b5bd 5174 00be 92a1 993d
00000330: 0eb2 40bd 6762 713d 58f1 a13d 77a4 543e
00000340: 4969 d6bd 10b0 42bb cb72 4c3d 5800 ab3d
00000350: d723 693d d3c3 253d 301b e6bd d517 713d
00000360: 355d 4c3d b981 3ebd 16c7 ebbc b257 52be
00000370: 2cdb 5dbe 34e3 a03d 8bfe 8f3d e5f8 7cbd
00000380: 66f1 8a3d 2d27 873d 9c45 9ebc 7459 4fbe
00000390: 0125 853d 7052 73bd 0901 983d 1567 593d
000003a0: 67d4 443d 8973 37be 8897 9c3d 42d1 4dbc
000003b0: 5b02 5ebe ebb2 b03d 8248 19bd dab7 14be
000003c0: e79e 2d3e eb75 33bd f7fa 623e 9418 1f3d
000003d0: 3778 4ebd 5e6b 833d ce14 6cbc 162a 0fbe
000003e0: 696f 613d 6cb4 babd 4e87 bb3d fc5b 6ebd
000003f0: 2bb9 0bbd 3d14 81bd 9163 443d fddd b0bd
